indep_mnist_mlp_6_layers.pt (torch, 525342 bytes, 14 tensors)

model.0.weight f4 [100, 784]
00000000: c30d 853c 0b5a 1bbd 0585 79bb 1085 a8bc
00000010: 3df1 adbb 90c2 a8bc 27ff ae3c 480f 61bc
00000020: ce62 4abc e3dd 10bd fccb 16bb 741b cfbc
00000030: 1637 393c 0ef7 c43c 0210 35bc 5042 eb3c
00000040: cdcb 8d3b 7639 22bc fa0a 133c f3a0 e93c
00000050: f029 0ebd 0eab 9e3c 7b45 253c 146c dcbc
00000060: a5d3 dbbc 269c 1dbd 5f34 d33c 64ab 623b
00000070: be63 bcbc 76bd 0bb9 5e70 2d3c e77b fcbc
00000080: f25c 813c 65dc bdbc b209 8dbc 7690 293c
00000090: 06f0 dabc d19c a9bc 275b 0dbc 349e 12bd
000000a0: 8311 67bc e244 5f3c 2eb1 da3c 16ec 853c
000000b0: 2884 07bd 6ac2 59bc 9819 413c fc3c c93c
000000c0: fe0f ef3c 0eec afbc 631e a13c 42da 17bd
000000d0: 2081 843c 9710 f13b 4529 113c 00c7 6e3c
000000e0: 0c18 80ba c52b e2bb 7a91 fe3c 8033 d83c
000000f0: 7467 b53c 4779 22bb 9acf 8e3c f413 273c
00000100: dc90 ccbc 79b4 833c de65 703c 0223 babc
00000110: 0a4a 4b3d 1a03 e4bb eff7 013d d3f9 353d
00000120: e8c6 c53c 1794 f7b6 3520 1d3d 945c bb3a
00000130: 6c7b 3f3c ea23 f13c c80d 983c 06a9 023d
00000140: b77a e33c cbda 9cbb 4d88 00bd 085a 59bc
00000150: 3e3a 46bc 9f85 11bd 01cc 463c b692 f73c
00000160: 80ad 64ba ac4a 763c 2f35 073d 54c8 e4bc
00000170: 4d86 dbbc e8ad d8bc b2b1 553c 7818 0d3d
00000180: 6827 97ba f76b bc3c e95b 6fbc 769f e83c
00000190: d559 f7ba 89be 15bd 306a a83c 6a4e 42ba
000001a0: 1b12 db3b 100f bdbc 860b 923c 4c2d 14bd
000001b0: 4282 cbbc fbf3 1bbd 8e81 da3c 4b5d fa3c
000001c0: f440 6d3c 6ec8 093b d3bd 083d 43ba a3b9
000001d0: 7d02 f33c 6a06 8e3c 09d5 ef3c 69aa 6d3b
000001e0: 156c be3b a84d b8bc 4d88 e13b 5396 603b
000001f0: 93e6 0f3b 10d8 913d 6ca1 6b3c f23f dfbb
00000200: 38c6 aabc 3cbe 7ebd c713 07bd 3120 363d
00000210: afd6 613c ffc2 6abc 05a0 4abc eabf a03c
00000220: 3d08 06bd 9461 693c 54dc 183c e7e6 36bc
00000230: 3315 c33c da07 47bc 9b87 98bc 470e b6bc
00000240: afdc 9bbb c251 4e3d 4724 cb3b 5fc0 0ebc
00000250: 7dc9 e03b 656a 133c 9b76 523c d4cb fc3c
00000260: 5c9a 653d 6f11 adbc b597 a33a b1fc d8bc
00000270: aca8 4bbd 95fd 84bc dc15 98bd 5031 29bd
00000280: 9d2f 123c d0c1 a7bc 9669 793c a4a7 993c
00000290: 1740 afbc ba44 4d3c b628 e0bb 4290 b73c
000002a0: 2a49 a43c e793 f43c 238b be3c b526 9cbb
000002b0: 899d 203d 4317 543c 3009 6dbc 5b38 a13a
000002c0: 6701 97bb da5d b8bc 664b 4a3d e994 bc3c
000002d0: ad1e debb 2acc ebbb f69d ca3c 95a3 17bd
000002e0: d397 9ebc efcf acbd 7c67 60bd c335 2dbd
000002f0: 73e0 c5bb ff73 82bc 030f 473d eac4 843d
00000300: d502 843d 199d 563c 1a44 7dbc 5082 5dbc
00000310: cf54 7ebc 171a 9f3c 370b c93b 6de8 74ba
00000320: 377c debc 2f0b 9abc 9229 afbc 1f78 79bc
00000330: 027d 49bd e156 62bb e6ab 623c 5ca9 90bc
00000340: 7c44 743b dd43 86bc c9cf 15bd 23f0 abbd
00000350: 2272 cbbd 0066 4ebd 103f 3ebd 7b82 56bd
00000360: 6369 afbc 4d5c 833a eaae a43c 0c55 8d3d
00000370: 8b43 b03d 9d43 0f3c 80ad 923c 7fba aabc
00000380: 8105 8fbc 6913 e6bc 1fbc 1f3b 8625 05bc
00000390: 28cb 44bd c456 6c39 628e 0ebd de9b 753c
000003a0: 8e82 73bd 3579 ef3a 3edd 163c 4e95 85bc
000003b0: ab99 d0bb 9f7a 2bbd a6b2 b6ba e851 17bd
000003c0: 3e64 cebd bc5b bdbc 79bd 0abd 3c97 39bd
000003d0: caaa 10bd d793 c53c dbc7 8c3d ad1d 683d
000003e0: 976c a03d 0fed d03c 9c55 1b3d e60a b3bc
000003f0: 2039 e73c 416c 85bc 9875 1dbd 316e 00bd
0.016241914 -0.03792767 -0.003807367 -0.020571262 -0.005308299 -0.020600587 0.0213619 -0.0137365535
-0.012352658 -0.035367858 -0.0023009768 -0.025281645 0.011304637 0.024043586 -0.01105118 0.028718144
0.0043272735 -0.009901395 0.008974785 0.02851913 -0.034707963 0.019368675 0.010087366 -0.026907004
-0.026834318 -0.038478993 0.025781808 0.003458702 -0.02299678 -0.00013326653 0.010585872 -0.0308208
0.01579139 -0.023176381 -0.017216537 0.010349384 -0.02672578 -0.020704659 -0.008627689 -0.035795406
-0.014103296 0.013627263 0.026695814 0.016347926 -0.03308502 -0.013290981 0.011785887 0.024565212
0.02918243 -0.021474864 0.01966781 -0.03707338 0.016174853 0.007356714 0.008859937 0.0145738125
-0.0009772792 -0.0069021904 0.031075228 0.026391745 0.022144057 -0.0024791525 0.017432977 0.010197628
-0.024971418 0.016077267 0.0146727245 -0.022721771 0.049631156 -0.0069583775 0.03173059 0.044427704
0.024142697 -7.3784136e-06 0.038360793 0.0014294558 0.011687141 0.02943607 0.018561259 0.031899475
0.027768476 -0.0047868243 -0.031379987 -0.013266094 -0.012098847 -0.03552782 0.012133599 0.030221324
-0.0008723363 0.015032452 0.033009704 -0.027927555 -0.026797438 -0.026450112 0.013042854 0.034447163
-0.001153213 0.0230007 -0.014609315 0.02839635 -0.0018871377 -0.03655866 0.020558447 -0.00074121973
0.006685508 -0.023078471 0.01782776 -0.03617601 -0.024842385 -0.038074475 0.026673105 0.030562064
0.014480818 0.0021024006 0.033384155 -0.00031228559 0.029664272 0.017337043 0.029276388 0.0036264902
0.005811224 -0.022497967 0.0068827034 0.0034269288 0.0021957501 0.07121289 0.014381748 -0.006813043
-0.020846471 -0.06219314 -0.032977846 0.044464294 0.013784095 -0.014328717 -0.012367253 0.019622762
-0.0327227 0.014244456 0.009329874 -0.01116345 0.02381382 -0.012147868 -0.01861935 -0.022223605
-0.004756532 0.05037094 0.006199393 -0.008712857 0.006859957 0.008997534 0.012845661 0.030858912
0.05605541 -0.021126477 0.0012481125 -0.02648768 -0.049721405 -0.016234199 -0.07426044 -0.041306794
0.008922485 -0.02047816 0.015222928 0.018756695 -0.021392865 0.012528593 -0.0068407906 0.022407655
0.020054419 0.029855682 0.023259705 -0.0047653564 0.039212737 0.012944999 -0.0144675225 0.001230012
-0.0046083215 -0.02250569 0.04938831 0.023020225 -0.006778559 -0.007195969 0.024733525 -0.03702124
-0.019359505 -0.08438098 -0.05478619 -0.0422876 -0.0060387193 -0.015924452 0.0485983 0.06482871
0.06445853 0.013098978 -0.015458131 -0.013519838 -0.01552315 0.01942162 0.00613537 -0.00093424955
-0.02715884 -0.01880416 -0.021382127 -0.015226393 -0.049191482 -0.0034536647 0.013834929 -0.017658882
0.0037272265 -0.016389782 -0.036575112 -0.08395412 -0.099338785 -0.050390244 -0.04644686 -0.05237053
-0.021412557 0.0010022015 0.020102937 0.06900987 0.08606633 0.008744148 0.017904997 -0.020840881
-0.01745868 -0.028085427 0.0024373604 -0.008126622 -0.048045307 0.00022539037 -0.034803756 0.014990775
-0.05945068 0.0018270375 0.009208022 -0.016306546 -0.006365975 -0.041864987 -0.001393874 -0.036943346
-0.100777134 -0.023115031 -0.0338721 -0.045310244 -0.035319127 0.024118347 0.06874057 0.056668926
0.07833212 0.025503663 0.03792344 -0.021855783 0.028225482 -0.016286971 -0.038442224 -0.031355087

model.0.bias f4 [100]
00000000: c1bb 24bc 329b 9b3c 7629 093c 6675 c9bc
00000010: dba5 39bc 7428 9abc e7ce 25bd 0faa 423d
00000020: 4aaf 98bc 91d5 5c3c a4e3 9c3c 2c8c d6bc
00000030: 1a5a b33c 5ebf 2d3c 1776 923c ea48 03bc
00000040: 82cb 09bd a4b2 223d f7f5 453b f066 cb3c
00000050: 72d8 fdbb 2d1f fbbc c880 d33c 08c5 32bd
00000060: f6c7 9a3c 3665 833c e896 bcbb cd56 8c3c
00000070: 214d 163c 74d1 b0bc dc08 92bc d926 91bc
00000080: 3bf4 dfbc dc45 553c f0c9 bcba de90 f43c
00000090: baba a03b 9536 e13c 1483 ed3a 5a34 e03c
000000a0: 9307 14bd f306 acbc df98 4cba 4456 e13b
000000b0: 712b 61bc 532b acbc da18 e63c b31d 9ebc
000000c0: 3055 36bc d5a3 3e3d 45ed bfbc a339 d6bc
000000d0: ddc5 093c a6f8 523c 0fa8 9a39 5a2e b7bc
000000e0: cdf2 79bc d483 203d 6090 14bd 6182 6e3c
000000f0: 5cfd 993a b467 683c af44 d1bc 50da 113d
00000100: 97f7 febc 3524 05bd 6fdc 46bc 9155 56bc
00000110: f4c2 8f3c 1fa0 053d 16c3 99ba 63a8 0d3d
00000120: 6948 fc3c 15e3 143c 1db4 46ba e92d 7dbb
00000130: 4ceb febc 9954 bfbc 14ac 60bb 53cd 1d3b
00000140: 91df 253c a84e 383c b8c4 103d 884c 6a3c
00000150: 8793 9fb9 2959 2f3d bb55 933c 6abf bc3c
00000160: 9fcb 83bc 5306 3dbb 9206 963c ab58 89bc
00000170: 907b 143d bb2d 8b3b ea33 eebb aa9a 2d3d
00000180: 4635 bd3c 72d1 85bc 6577 2cbc fb4d 08bd
-0.01005453 0.018994901 0.008371701 -0.024592113 -0.011331047 -0.018818118 -0.04048052 0.04752546
-0.018638272 0.013478653 0.019151516 -0.026189886 0.02189355 0.0106047075 0.017878575 -0.00801299
-0.033641346 0.039721146 0.003020642 0.024829358 -0.0077467496 -0.030654514 0.025818244 -0.043644935
0.018894177 0.016039472 -0.005755294 0.017131234 0.009173662 -0.02158425 -0.01782649 -0.01771872
-0.027338138 0.013017144 -0.0014403444 0.029854234 0.004905072 0.027491847 0.0018120729 0.027368713
-0.036140036 -0.020999407 -0.0007804762 0.0068767387 -0.013743267 -0.021016752 0.028088022 -0.019301271
-0.011128709 0.04654296 -0.023428569 -0.02615053 0.008408991 0.012876665 0.00029498382 -0.02236097
-0.015255642 0.03918822 -0.0362705 0.014557452 0.0011748481 0.014184881 -0.025545446 0.03560859
-0.03112392 -0.032505233 -0.012137516 -0.013081924 0.017549016 0.032623406 -0.0011731114 0.034584414
0.030796247 0.009087344 -0.00075799396 -0.00386321 -0.031118058 -0.023355769 -0.0034282254 0.0024078682
0.010124103 0.011249222 0.035343856 0.014300473 -0.0003043676 0.04280964 0.017985215 0.023040492
-0.016088305 -0.002884288 0.01831368 -0.016765913 0.03625065 0.004247395 -0.007269372 0.042383827
0.023096692 -0.016335223 -0.010526513 -0.033277493

model.2.weight f4 [100, 100]
00000000: f717 893d 0422 dbbc 95cd 6cbd e872 f1bc
00000010: 7434 1dbc d7cb 21bd 9127 f13c a3f3 173d
00000020: a738 483d d243 d13c 0f4a dcbd 14ea 6c3c
00000030: 2c65 aebd cfda 2d3d 4dee 89bc dbcc 8dbd
00000040: 3dca 77bc c6c3 7fbd 99f7 733d fd30 f6bd
00000050: 7438 6b3d 79c9 983d 5995 6bbd 096b bfbd
00000060: b9ea 5a3d 4b3f abbd d2a5 293b 61d2 9fbd
00000070: f72a a03c d2a3 b7bd 8fe5 a43c 8f6a e1bc
00000080: 9074 afbd f7f8 c43d dbf8 a03d 81f6 b2bd
00000090: d1a4 993a bc12 cc3d 498a 6f3d d4a5 a4bd
000000a0: 5893 d4bd dfe9 113d b7d6 b8bd 960f 9d3d
000000b0: 42e3 a2bd f826 83bd 668e 15bd 8cf4 2bbd
000000c0: 9e6c 453d 2e03 b0bd 93ed 21bd 73f5 4ebd
000000d0: f29c 6b3d 859e ddbd 63b2 9e3a a8fe 42ba
000000e0: 48b9 47bc bda1 a3bd e838 303d c989 8c3d
000000f0: ce65 a4bd c2f5 e3bd 7c92 afbd 93c3 1abc
00000100: 61e0 f0bc df7d 42ba 707e dcbc ef8a ad3b
00000110: 273e d2bd 6c56 d3bd e093 38bc 32e7 6fbc
00000120: 651f 963c 4a36 143d 5231 633d 9d21 2cbd
00000130: d470 153d aab2 b73d c7b5 973a 8a83 64bd
00000140: b97b bbbd 7412 bdbd ddef 6abd 5e0f b1bd
00000150: 8d60 85bd 18ed 81bd 6dc7 1f3d b111 08bd
00000160: 8a23 b7bc 8f33 b3bd f31b 97bd 8531 87bd
00000170: dd54 a03d 802b 29bd 0081 bc3c 2cd0 ddbb
00000180: 6c7d 0e3b 48aa afbd a524 79bd 9a7b 2d3d
00000190: 5d6d a13d 8fc4 fe3d 2e44 f23d 78fa 5f3b
000001a0: 432e ebbd 564e 563d ce61 9bbb 9830 8e3d
000001b0: eb16 09be 2871 e93b 3f7d 2fbe e6c8 9bbd
000001c0: b06b 183d ad54 ba3d 0cde 17bd f825 bf3c
000001d0: 8c1b fc3d a621 d3bd fc8a 7c3d dfad 133c
000001e0: 3866 46bd 0de5 8dbd c3f0 b63d f91c fc3d
000001f0: 6bfd 133e b1c1 f33c 6bb5 41bd d0fc 30bc
00000200: de8b b13d fd14 a3bd 7b7d 913d 466f a73d
00000210: ed97 21bd 9c74 673d ca2b 01bd fc07 9b3d
00000220: 990f e5bc b212 2c3e ab5e 85bd b7d2 a1bd
00000230: 93fe 20bc b047 923c 4929 a3bb 078a 013c
00000240: 38c8 f8bd 4143 d1bc 5dbc 3e3e 3b18 ca3d
00000250: 2499 92bc 6217 4ebd b120 4dbd a8e8 ce3d
00000260: c711 2cbd 1d16 b7bd 7a17 ce3d d7d8 3ebd
00000270: a073 dabc 1383 e1bc 356c 233d 87ed 9c3c
00000280: ecd5 cd3d 51ba 913d 00f8 ee3c b6f8 24bd
00000290: ff11 d5bc 983e c73d c1a4 273c d603 98bc
000002a0: 6e02 fb3d d86e 3abd 5f6c 453d 3ef3 9d3d
000002b0: 389b 90bd 0d57 5ebd ec09 59bb 02d4 613d
000002c0: c37d c6bd 92e1 593d 8ac1 d33d b890 37be
000002d0: 3741 a53d 11a6 813c f162 7cbd 6066 583d
000002e0: 548f 343d aaf5 803d 5d98 673d 2aed ccbc
000002f0: 0e36 cf3d 9319 e5ba 44c1 d5ba db9f 1dbd
00000300: 3224 2b3d 7c66 a53d 0244 b83d 88c2 3cbc
00000310: 1fd5 fe3d e51c 88bd e1ae a5bd 7679 c43b
00000320: e99d 843d 11c8 28be 9789 ba3d bc12 c63d
00000330: 6783 473d b27e 46bd 5612 683d bd8b fa3d
00000340: 6d55 0b3c a124 023d 9f48 07bc 2763 3f3d
00000350: 81d8 44bb 0ccd f03d 8812 06be a3f4 ecbc
00000360: d8bf e03d c218 58bd 5e6d d8bc 6578 293d
00000370: 3cf3 acbd 052b 64bd f027 c9bd c606 c1bd
00000380: ef34 043d 65a4 3b3d 776c cfbd 3f34 d03d
00000390: 64dd 623d 2287 6cbd d80d 6bbd a870 953d
000003a0: 5c27 cbbd 5ae5 23bc a8f5 91bd 1dbb e03c
000003b0: 12f8 1dbd a420 423e e8fd 22bd c19e 263d
000003c0: fd29 87bc cde9 543c a063 163d 6cca 8d3d
000003d0: 1a38 c43c fcb9 ba3d 3b57 dcbc fa09 a8bd
000003e0: 4722 82bc 3b5e e53d 42d8 ed3b fda7 90bc
000003f0: fc9c d0bd 98df 38bd 1715 8f3d 673a ab3c
0.06694024 -0.026749618 -0.057813246 -0.029473737 -0.009595025 -0.039501037 0.029437812 0.037097584
0.048882153 0.025545035 -0.10756313 0.014460105 -0.08515391 0.042445 -0.016837263 -0.06923839
-0.015123901 -0.062442563 0.0595623 -0.120210625 0.057426885 0.07460303 -0.057515476 -0.09346587
0.053446505 -0.083616816 0.002588619 -0.078037985 0.019551737 -0.08966793 0.020128993 -0.027516631
-0.085671544 0.09617799 0.078599654 -0.08738423 0.0011722093 0.09964511 0.05848149 -0.08039442
-0.10379666 0.035623427 -0.090253286 0.076689884 -0.07953502 -0.06403917 -0.036512755 -0.041981265
0.04819929 -0.085943565 -0.03953321 -0.050527047 0.05752272 -0.10821251 0.0012107607 -0.00074384594
-0.012190171 -0.079898335 0.04302302 0.06862218 -0.0802723 -0.11130859 -0.085728616 -0.009446043
-0.029403867 -0.0007419269 -0.026915759 0.005296103 -0.10265761 -0.10319218 -0.011265725 -0.014642524
0.018325517 0.036184587 0.055466957 -0.042024244 0.036484554 0.08969624 0.001157456 -0.055789508
-0.091544576 -0.09232035 -0.057357658 -0.08645509 -0.06512556 -0.0634405 0.039008547 -0.033219997
-0.022355814 -0.087500684 -0.07378378 -0.06601242 0.078286864 -0.04130125 0.02301073 -0.006769201
0.0021742238 -0.085774004 -0.060825963 0.042354204 0.078821875 0.12439834 0.118294105 0.003417639
-0.11483433 0.0523208 -0.004741884 0.06942862 -0.13387649 0.007124085 -0.17137621 -0.07606678
0.037212074 0.09098182 -0.037076995 0.023333535 0.12309942 -0.10309152 0.061655983 0.009013622
-0.048437327 -0.069284536 0.089326404 0.123102136 0.1445214 0.029755445 -0.047292154 -0.010802463
0.08669256 -0.079629876 0.071040116 0.081755206 -0.03945153 0.05650769 -0.0315359 0.07569882
-0.02796154 0.16804007 -0.06512197 -0.07901519 -0.00982632 0.017856449 -0.004979287 0.007906443
-0.12147564 -0.025544764 0.18626542 0.09867903 -0.017895289 -0.05031527 -0.050080005 0.101029694
-0.04200914 -0.08939765 0.100630715 -0.046593513 -0.026666462 -0.027528321 0.039898116 0.01915623
0.10050568 0.07115615 0.02917099 -0.04027625 -0.026009558 0.09728736 0.0102321515 -0.018556517
0.12256323 -0.045515865 0.048199054 0.077124104 -0.070608556 -0.054282237 -0.0033117486 0.055133827
-0.09691956 0.053193636 0.10339649 -0.179263 0.08069079 0.015826257 -0.061617795 0.052832007
0.044082 0.06296857 0.05654179 -0.025015432 0.10117732 -0.0017478935 -0.0016308208 -0.03848253
0.041782565 0.08076188 0.089973465 -0.011520989 0.124429934 -0.06646136 -0.08089996 0.0059959246
0.064754315 -0.1648257 0.091082744 0.09671542 0.0487093 -0.04846067 0.05665811 0.12233684
0.008504254 0.031773213 -0.00825706 0.04672542 -0.0030036273 0.117578596 -0.13093007 -0.028925246
0.10974091 -0.052757986 -0.026419338 0.041374583 -0.08444831 -0.05570509 -0.098220706 -0.0942512
0.032277044 0.045811076 -0.1012811 0.10166215 0.055386916 -0.05774606 -0.05738625 0.07296878
-0.099196166 -0.010003412 -0.07126933 0.027432973 -0.038566656 0.18957764 -0.039792925 0.040678743
-0.016499514 0.012995196 0.036716104 0.069233745 0.023952533 0.09117505 -0.026897063 -0.08205028
-0.015885485 0.11199614 0.007258446 -0.017658228 -0.101861924 -0.04513511 0.069864444 0.020901872

model.2.bias f4 [100]
00000000: eb01 06bd 0a0a e13d 1fc6 9e3d 3c31 cfbb
00000010: 9ef3 223c 25b7 a73d b2cf ed3d 0716 da3d
00000020: 65d2 c23d 8f8d 8cbd a57d 81ba c765 443d
00000030: e90f ed3d bbfb 76bc 4c40 39bd 997f dd3d
00000040: 6109 6dbd 0744 cb3d 74db 70bd 700a ab3d
00000050: 1e7a 0b3d 813f ccbc f0d6 d4bc 304a a03d
00000060: 6695 b3bc 36c0 f6bc 0f9e bfbd f29b 873c
00000070: 8b65 82bd d887 63bd ea7f 09bc 734f f7bc
00000080: 4028 223d cbba af3d 440c 65bc b0ee 353d
00000090: 2570 96bd 178a 73bb e0f5 efbc 674d 34bd
000000a0: 6f87 cd3b 9dc6 e53d 04a9 923d 2b5f aabd
000000b0: 042f ab3d 3e79 b6bd c7f5 83bb fc55 623d
000000c0: aa51 8dbd 8013 2c3b 7c9f 9e3d ac30 a63d
000000d0: 154a 13bc 858d 9f3d f60d c7bd f29d d9bc
000000e0: 9aaa 9d3c ceda cb3b 0b26 6ebd b21e 9cbd
000000f0: f7ff d9bd 8b8a b43c 56fa b03b 620e 37bd
00000100: 65f7 78bd ce8d 40bd 8523 4bbd 29a9 dc3d
00000110: e989 82bd 7a78 c73d 74d9 ae3d efbd 31bd
00000120: 6be9 983d 8d31 873c 8792 f7bc 34ba 90bb
00000130: d568 9abd dc95 d43a 6a62 2c3d be1a 99bd
00000140: dafb 84bd b740 8abd f2cd e43b c435 4f3d
00000150: 6a81 d43d ca4d b9bc 5387 c5bd 0931 6fbd
00000160: ff79 943c 08cd 543c 6e99 b5bb 1309 3fbc
00000170: b424 b6bd eebf 523d f984 51bd b6a1 b13d
00000180: 707a 86bd 020c 27bd 3038 41bd 17f7 b73c
-0.032716673 0.10988243 0.07752632 -0.006323008 0.009945778 0.08189229 0.1161188 0.10648733
0.09512786 -0.06862938 -0.0009879364 0.047948625 0.115753 -0.015074666 -0.045227334 0.10815353
-0.057870273 0.099250846 -0.058803037 0.083516 0.034052007 -0.024932625 -0.025981396 0.0782665
-0.021921825 -0.03012095 -0.09356319 0.016553853 -0.06367024 -0.055549473 -0.0083923135 -0.030189252
0.039589167 0.0858055 -0.013979975 0.044417083 -0.073456086 -0.0037161165 -0.029292047 -0.04401913
0.0062722485 0.11219523 0.071611434 -0.08318933 0.08358577 -0.08909844 -0.0040271017 0.055257782
-0.06900342 0.002625674 0.07745263 0.08114752 -0.0089898305 0.077906646 -0.0971946 -0.026564572
0.019246388 0.006221152 -0.05814175 -0.07623042 -0.106445245 0.022038719 0.005400936 -0.04469145
-0.06078281 -0.047010235 -0.04959442 0.10774452 -0.063739605 0.09739776 0.0853757 -0.043394025
0.07466396 0.01650312 -0.030221237 -0.0044167284 -0.075395264 0.0016218978 0.042086042 -0.07475804
-0.064933494 -0.067506246 0.0069825584 0.050588384 0.10376246 -0.0226201 -0.09644952 -0.058396373
0.018124579 0.012988336 -0.005541972 -0.011659878 -0.08893719 0.05145257 -0.051152203 0.08673422
-0.06566322 -0.040782936 -0.047172725 0.022456689

model.4.weight f4 [100, 100]
00000000: 0167 ae3d c245 453e e5da ad3d 851d 0ebd
00000010: fbf5 68bd cca1 463e bdfe 92bc e017 9b3c
00000020: 2b05 073d 8f11 51bc 8938 7f3b 0f4d 51bd
00000030: 8cb7 d4bc 58fd 0e3c 23c6 86bd 00f3 103e
00000040: 0695 343d dbe6 933d b78c 61bd 27ed 1a3c
00000050: 8cd0 4e3d a9b4 0e3c 9d61 903d a235 d53c
00000060: 40ba 43bd 0b9b ff3c 78e7 153e a656 c33c
00000070: ddbb b6bd 34b0 793d 470b a3bd 890d d5bc
00000080: de73 56bd 4101 9bbd 44db 83bd b516 29be
00000090: 1f8a cfbc f758 09bd 4de2 12be 91eb 34bc
000000a0: 8c92 123e 720c eb3c d048 ddbd b2c0 0bbe
000000b0: b9b4 523c bd6f 95bd a425 603d 0b9d cc3c
000000c0: c759 9a3d 95ce b73d d992 e6bd 11dd fcbc
000000d0: fece 4e3c ffff adbc 30fc 06bc 29cc 113e
000000e0: ed4c aabd f0e1 983d 0472 6b3d d25a 623c
000000f0: b228 083d 4db0 c4bc f9c0 02bd 810f ac3c
00000100: 2bcc be3d 0775 e33c 44e1 bc3d 1f87 a73d
00000110: 9169 213e 75df ea3c 102c 7d3d 9c76 143e
00000120: 87c6 b5bd ae0f 45bd 55c1 abbd 8fb1 403e
00000130: f74d c3bd 10fc 40bd d8c8 063e c28d b53d
00000140: adc1 4cbd 945e b1bb 8a0c 2f3b 0963 4c3d
00000150: 8cf2 d33c f1dc 54bc 6f73 2dbd 5ec4 9d3c
00000160: 3a57 503d 9cb8 193e a264 c4bd 109a 683d
00000170: 2e2a 06be 9507 de3d c84b 3bbc 178c debd
00000180: 4202 fdbd 7595 b93d 8a6e 873c de7f d0bc
00000190: 8237 4d3d 374c 333d b9d8 093e 0ecd cf3d
000001a0: 92eb c43d ffe1 d23d 2188 3f3c 1d6d cd3d
000001b0: e4f5 a73d f860 8f3d 5618 a33d 725c fe3c
000001c0: 2e6d a8bd 159d 293e 69f0 0a3c 60b9 0abe
000001d0: b8db 283c b29d 583d e32a 8c3c 0df2 ccbd
000001e0: f722 193c d59e ab3d 4635 813d c45a e13d
000001f0: fe4e c8bd 8ac2 fe3c 562a b73d 640a 53bd
00000200: 663e d33c b58b 2a3d ac95 13bc ed26 09bc
00000210: 3ab3 03bc 3fc1 db3d f625 3b3c f670 b0bd
00000220: 282f 643d 2410 943d 11bc d53d 6b0f c33d
00000230: 31bb 2cbd 16b6 a73a d52e 523d 1d28 023e
00000240: 9aa5 093d f662 543e 432c eb3c 9290 73bd
00000250: 320f c0bd 6f2f fe3c 7978 ab3c 156c b43d
00000260: d9c0 3dbd 5fd7 03bd 4317 ef3d 5a63 053e
00000270: cc50 663d b698 c33c a0ad d3bd 696f a6bd
00000280: 3ce9 0f3e 3bc1 ed3c f6bd 02bc 7524 bf3c
00000290: 4c4d cebc 9193 e9bb fcc8 3abc 952e a3bd
000002a0: 22a7 97bd 3cf7 833d 40c7 d73d b872 b93d
000002b0: f147 323c 988d f63d 3e53 8bbd c6a7 77bc
000002c0: 1689 1b3d b8dd a2bd 7888 90bc 9558 193e
000002d0: c0cb ce3d 229f 853c 0662 50bd 5a39 7b3c
000002e0: 04b5 b739 9eb4 d63c 2513 45bd 5185 653e
000002f0: 4988 70bd 5c40 06bd c73b d1ba bf92 65bd
00000300: bcc1 0abd 80f0 663c 9d3d 423d 856a 863d
00000310: 3c76 273d 0c1d 643c ea40 41bc d3aa 7c3c
00000320: 87b2 8bbd 3b6c c53d d60c 9a3d c95b 7fbd
00000330: b42f d33d 16fb 59bd 3012 48bd 15d3 66bd
00000340: ca00 38bc 41e2 82bd d305 bb3d a221 8f3c
00000350: f69e 5dbd ecb2 c4bc 7883 d73d ca2f 30bd
00000360: 3ba3 8abc fc2e 89bd 657c acbc 5a2b 0fbd
00000370: 984e fa3d 37bd 9cbd 60d6 70bd 9df2 243d
00000380: 0c82 c03d 0345 d8bc a96a 82bb bc7a 78bd
00000390: c0df 0e3e 75a0 ba3c 7107 a93d cf1e 923d
000003a0: 4761 b53c 74c5 873b c26d 243d 0612 c23d
000003b0: 0920 733c cd25 e63d 9f2b 053b 5e0a 093d
000003c0: ff95 00bc eb91 93b9 ddeb fbbc 0cf5 60bd
000003d0: e989 be3d 959b 823c e229 163d 796b 373d
000003e0: fbb1 803d 1c38 903d 2c71 f43b 85a9 8cbc
000003f0: 1d2e 85bd e086 093d 3b7a 663d abea c8bd
0.0851574 0.19264892 0.084890164 -0.03469612 -0.05687521 0.19397658 -0.017943734 0.018932283
0.032963913 -0.012760534 0.003894361 -0.05109888 -0.025966428 0.008727394 -0.0658076 0.14155197
0.044087432 0.072217666 -0.055065837 0.009455956 0.050491855 0.008710065 0.07049868 0.02602655
-0.047785044 0.03120186 0.1463908 0.023845028 -0.08922551 0.060959056 -0.07961135 -0.02600743
-0.052356593 -0.075685985 -0.06438306 -0.16512568 -0.025334416 -0.03353211 -0.1434414 -0.0110424915
0.14313716 0.028692458 -0.108049035 -0.13647726 0.01286047 -0.07296703 0.054723397 0.024977228
0.07536655 0.08974949 -0.11258478 -0.030867131 0.012622593 -0.021240233 -0.008238837 0.14238037
-0.08315454 0.07464969 0.05748178 0.013815599 0.033241935 -0.024009848 -0.031922314 0.021003487
0.09316286 0.027765764 0.092226535 0.08180069 0.15762927 0.028671006 0.0618096 0.14498371
-0.08875757 -0.048110656 -0.083864845 0.18817733 -0.09536355 -0.047115386 0.13162553 0.08864929
-0.04998939 -0.005412886 0.0026710355 0.049899135 0.025872491 -0.01299213 -0.042346414 0.019258674
0.050864436 0.15011829 -0.09589507 0.05678755 -0.13102028 0.1084129 -0.011431642 -0.10866564
-0.12353946 0.0906171 0.016532201 -0.025451597 0.050101765 0.043773856 0.1346158 0.10146533
0.09615244 0.102970116 0.0116901705 0.10030577 0.08201197 0.07000917 0.07963626 0.03104994
-0.082239494 0.16563828 0.00848017 -0.13547277 0.010306291 0.052884765 0.017110294 -0.10007105
0.009346715 0.08379904 0.06308989 0.1100364 -0.097806916 0.031098623 0.08943622 -0.05152358
0.02578659 0.04163714 -0.0090078525 -0.008371097 -0.008038336 0.10730218 0.011422625 -0.086152956
0.055709034 0.07229641 0.104362614 0.09524425 -0.042170707 0.0012795355 0.051314194 0.12710615
0.033605196 0.20740876 0.02870763 -0.059464045 -0.09377898 0.031028477 0.02093147 0.088096775
-0.046326492 -0.032187816 0.11674359 0.13026181 0.056229398 0.02387653 -0.10335851 -0.081267186
0.14053816 0.029022804 -0.0079798605 0.023332814 -0.025183342 -0.007128187 -0.0114004575 -0.07967869
-0.07404925 0.064436406 0.10536051 0.09055084 0.01088141 0.120387256 -0.068029866 -0.015115684
0.037972532 -0.07952446 -0.017643198 0.14975198 0.10097456 0.016311232 -0.050874732 0.015333498
0.00035039347 0.026209172 -0.04811396 0.22414137 -0.05872372 -0.03277622 -0.001596325 -0.05604815
-0.033876166 0.014095426 0.04742204 0.06563286 0.04088424 0.013922941 -0.011795262 0.015421587
-0.06821161 0.09639784 0.075219795 -0.062343393 0.10311833 -0.05321797 -0.04884547 -0.056353647
-0.011230657 -0.06390811 0.0913197 0.017472092 -0.054106675 -0.024011098 0.105231225 -0.043014325
-0.016923537 -0.06698415 -0.02105541 -0.034953453 0.12222022 -0.07653277 -0.058798194 0.040270437
0.093998045 -0.026400095 -0.00398 -0.060663924 0.13952541 0.02278159 0.082533725 0.071347825
0.022141112 0.0041434113 0.040143736 0.09476094 0.014839181 0.11237679 0.002032019 0.033457153
-0.007848262 -0.00028146742 -0.030752117 -0.054921195 0.09303648 0.015943328 0.036661036 0.04478023
0.06283947 0.07041952 0.00745978 -0.017170677 -0.06502936 0.033575892 0.05626891 -0.09810384

model.4.bias f4 [100]
00000000: 62f0 523d 863a 9b3d fd50 523c a7de f8bc
00000010: e098 3c3d 9f2f 333c ad4c 93bc 5a85 a7bc
00000020: 03b9 e03b 151f 5d3b 2957 c5bd 975d 7c3d
00000030: e76f 763d b730 fb3c bd15 7fbd 3f8f a1bd
00000040: afeb 96bd a830 66bd 148f 233d 4173 d9bd
00000050: d77f abba d284 d13c 1b73 873c 6cf0 823b
00000060: cd7d 85bd ba46 383d fa5a 8ebc 5e23 82bd
00000070: 7c17 88bd 1031 083c 0e31 d73d a45b aa3d
00000080: df34 d93d 1f52 d4bd 7ded 833c 993e 833d
00000090: d58b d13d ef65 bebc 792f 893b d665 54bd
000000a0: f982 19bd 5da2 fb3c f36a e13b 75c0 ebbd
000000b0: 51d0 3a3d adce 493d 2cf7 db3c 952b 8c3c
000000c0: 46db 84bc c76b 10bd ea93 b03c 2371 c53d
000000d0: e9fc 1abd 5aef a03d 92a0 fb3a dcf7 963c
000000e0: f678 cabb 14e0 903d 5dd8 83bc 25e8 91bb
000000f0: a870 3ebd f735 64bd 652a 163d e118 72bc
00000100: d9e9 2a3d 0de7 87bd f15b c53d e009 2f3d
00000110: 8cbe 05bd f82b a63d f022 3b3d 45b7 aabc
00000120: 4c72 8d3d e368 4ebc 7f87 68bd 0e42 c0bc
00000130: 4242 5dbc 3d17 c13d 1876 b03d f505 3a3c
00000140: d4c4 0f3c 2d85 96bd 1063 a1bd 3dca ab3d
00000150: c2ba e33d adea 86bc c1d6 213d d97d 0e3c
00000160: ba14 7dbb 3a81 9a3d 936d e83b b48e a4bd
00000170: fd23 7f3d 5d90 b93d d435 50bd 0f28 33ba
00000180: 1ef5 bcbc d76f 06bd b6f9 513d 332c 673d
0.05149878 0.07579522 0.012836692 -0.030379606 0.04604423 0.010936647 -0.017980898 -0.02044933
0.0068579926 0.003374045 -0.09635765 0.06161269 0.060165312 0.030662877 -0.06227659 -0.0788865
-0.07369172 -0.056198746 0.03993137 -0.10617686 -0.0013084364 0.025576029 0.016534379 0.0039959457
-0.06518135 0.044989325 -0.017377365 -0.06354402 -0.06645104 0.008312479 0.10507403 0.0831826
0.106057875 -0.10367226 0.016104454 0.06408424 0.10231749 -0.023241965 0.0041865674 -0.05185493
-0.03747842 0.03071707 0.0068792044 -0.11511318 0.045608822 0.049269367 0.02685126 0.017110625
-0.016217839 -0.035259034 0.021554906 0.0964072 -0.03783885 0.07858153 0.0019197634 0.018428735
-0.0061789704 0.070739895 -0.016094381 -0.0044527226 -0.046494156 -0.055715527 0.036661524 -0.014776439
0.04172692 -0.06635866 0.09636677 0.042734027 -0.032652423 0.08113855 0.045687616 -0.020839343
0.06906566 -0.012598249 -0.056769844 -0.023468997 -0.013504567 0.094282605 0.086162746 0.011353959
0.008774955 -0.0734962 -0.07880223 0.08388183 0.111196056 -0.016469324 0.039511446 0.008696997
-0.003861709 0.07544179 0.0070931404 -0.08035031 0.06229018 0.09060738 -0.050832585 -0.00068342773
-0.0230661 -0.032821503 0.051263534 0.056438636

model.6.weight f4 [100, 100]
00000000: 4e0f d13d 120c 173c 2be9 5a3d fe59 c83d
00000010: 1e26 14bc d265 29bc 5a43 cf3c 22ef b4bd
00000020: 6de4 bebd b4a6 cd3d 1361 56bd 7e11 f6bb
00000030: a164 1e3e f904 86bc 0997 3bbd 342a 283d
00000040: 7b6b 9e3d 1c55 993c f5e1 dabb 825e a63d
00000050: 3b1c e23c f48f a13d 087c 7cbd 3236 073d
00000060: 3d91 56bd b464 c6bd a6a8 063c 5bef 513c
00000070: 2d4c d3bd d868 b2bc c0af c93c 2e38 c1bd
00000080: 27c7 b83d 2d2c f23c f6f3 0a3e 1220 3bbd
00000090: ef78 1ebd 6342 2e3d e12d 24be 0605 c7bd
000000a0: 7a2f cc3d b8ae 7f3d e009 103d 44cf 66bd
000000b0: 6e9a 3c3e ad04 013d 6fd3 d53d 0ad7 3a3d
000000c0: bae5 5bbc 05fd 283d 4162 6d3d 2bcc c9bc
000000d0: c5f6 7ebc c8d0 8d3d dc84 ce3d 86d6 db3d
000000e0: e675 593d 87d5 acbb 3c9c ae3d 38f6 bbbd
000000f0: d4a2 213d a8d7 e2bd b528 11bc cb1f 953d
00000100: 731a 23bc 4616 8d3d e0f0 133e 0efe c33b
00000110: a89e a3bd 2aa5 ea3d 42a2 6ebd 35aa 873d
00000120: f00a ce3d 87d7 d1bc 605e c93c b880 8d3d
00000130: 10a9 c63d cd0f c5bd e339 0abd ab8b 82bd
00000140: 7eff b9bd 152d 6d3d 1ed7 9f3d 8b23 acbc
00000150: d17a 2bbd 4e00 c13d 51a4 803d e469 bdbd
00000160: 5a23 73bb 90d1 c7bd 6936 2abd d377 043e
00000170: fe2f 9d3d 079a df3c 6b4f d83b 20c4 ae3d
00000180: 74d6 cdbd 4d98 173e d855 e1bd 6c7f 9ebd
00000190: 8b03 2bbd 94e5 fb3c f31a 94bd b5bd acbd
000001a0: da92 83bd 30cb 9bbc de8c c1bd f36e 81bc
000001b0: 9d92 513b 0096 913d 07c7 a0bd 9ad0 1c3a
000001c0: d84b 3cbc 1618 84bd e24f 913d 1972 933d
000001d0: 04b3 84bc 2f88 a33d a310 d0bc b56f 653d
000001e0: 009e 92bd 2e08 693d c2c2 71bd eba3 7a3d
000001f0: 1fa8 83bd 20cf 9f3d 78e0 03bd 6db8 b93c
00000200: ef20 9bbb b8d2 90bd ec95 723c a7de cb3d
00000210: a6ea 1bbc 85cc 0ebd 4e98 163d 77b4 3e3c
00000220: 46d9 9bbd 91e5 78bc 6e5d 6bbc 6e29 3cbd
00000230: 0b8a c7bd 7c2f c7bd 5f0a ddbc 8017 adbb
00000240: 300b 38bd c9f4 a93d ae89 dbbb 91d7 79bd
00000250: 51bf edbc c5b2 583c 5c07 413d d22c 62bd
00000260: 073c 31bd 9332 ae3d 6a5a b5bd 929f 733d
00000270: 2223 b13d 7f89 7ebd d1b4 a93d 6cc5 86bd
00000280: 93b4 803c 5c1c 40bd af6f 153c 9190 273d
00000290: e277 823d 7d8b 4cbd 37ad f03b 574b 12bd
000002a0: 6980 8f3d 855d 8ebd 6543 ac3d 6b9e d5bc
000002b0: fff4 bd3d c5c9 bebc d462 c83b d6b4 84bd
000002c0: e18f c3bd 0b04 3c3d ba84 65bd a216 69bb
000002d0: 7223 8b3d b16f 7abd b72f c13d 9d17 1abd
000002e0: 7171 6f3d 3a74 4fbc 096f 933d 73d5 d6bd
000002f0: 7661 c2bc d262 443d e2cb f8bc 11e5 41bd
00000300: 3dd9 87bd 775b 84bd 89fb 483d 85bd b9bd
00000310: 2150 76bd 45f4 1f3c 05c9 b2bd 8b4c 9d3d
00000320: 2c3e 05bc 1415 b63d a9cd c33d 1f4c 1ebd
00000330: 7d37 6fbd fc31 fc3d 8e21 96bd 7a54 a63d
00000340: d2fd 7ebc cc38 02be ba07 75bd 4551 4abb
00000350: 7cab a53d 602d f9bc fd16 5d3d a219 59bb
00000360: 6645 963d 9bc4 5e3d cd22 583d 37f2 aebc
00000370: 72ca 95bb f221 8abd ab8e a53d 4f7f 14bd
00000380: 4272 c5bd 29c9 25bd ab20 a33d 027b 9fbd
00000390: 1afc df3d 1ce5 093e 1f1d dabd 28cd 27bd
000003a0: 0329 87bd c3a4 20be 49f2 c23d 90f3 50bd
000003b0: a6e0 a43d 110f 28bd 164c ac3d 3128 0d3c
000003c0: 7d94 bc3d b188 68bb c0fa ad3b 8714 d9bc
000003d0: 963d 0ebe 2af2 ad3c 6d10 d4bc 3d16 4ebd
000003e0: 7fe7 70bd f6ce e43c ac27 8bbd 3632 b63c
000003f0: dbe6 47bd c7b1 053e fd1d 16b8 a091 393c
0.10207997 0.009219186 0.053445023 0.0978279 -0.009042291 -0.010339217 0.02530067 -0.088346735
-0.093209125 0.10041562 -0.05233867 -0.0075094094 0.15468074 -0.016359793 -0.045798335 0.041055873
0.07735344 0.018717341 -0.006679768 0.08123495 0.027601352 0.07888785 -0.061641723 0.03301067
-0.052384604 -0.09687176 0.00821892 0.012813414 -0.10317264 -0.021778509 0.024619937 -0.094345436
0.0902236 0.02956208 0.13569626 -0.04568488 -0.03868955 0.04254378 -0.16033126 -0.09717755
0.09969993 0.062422484 0.035165668 -0.056350008 0.18418285 0.0314986 0.104407184 0.045615233
-0.01342147 0.041256923 0.05795503 -0.024633488 -0.015561764 0.069245875 0.10083935 0.107342765
0.053090952 -0.005274478 0.08525893 -0.09177822 0.039461926 -0.110762894 -0.008859803 0.07281455
-0.009955036 0.06889014 0.14447355 0.0059812134 -0.07989246 0.11457284 -0.05826021 0.06624261
0.1006068 -0.025615467 0.024581134 0.06909317 0.09700215 -0.096221544 -0.03374661 -0.06374296
-0.090819344 0.05790432 0.07804702 -0.021013042 -0.041865174 0.09423886 0.06281341 -0.09248713
-0.0037099929 -0.09756768 -0.041555796 0.12936334 0.076751694 0.027295126 0.0066012642 0.085335016
-0.10050669 0.14804192 -0.110027015 -0.077391475 -0.041751426 0.03074912 -0.07231703 -0.08434621
-0.06424494 -0.019017786 -0.094506964 -0.015799975 0.0031978257 0.07108688 -0.078504615 0.0005982012
-0.011492692 -0.064499065 0.070953146 0.07199497 -0.016198643 0.07984959 -0.025398558 0.056014735
-0.07159042 0.056892566 -0.059023626 0.06119148 -0.06428551 0.07803178 -0.032196492 0.022670949
-0.0047341506 -0.070714414 0.014806252 0.09954577 -0.009516394 -0.034863014 0.036766343 0.011639706
-0.07609801 -0.015191452 -0.014365537 -0.045937948 -0.097431265 -0.09725854 -0.026982484 -0.0052823424
-0.044932544 0.08298642 -0.0066997623 -0.060996596 -0.02902189 0.013226216 0.04712616 -0.055218525
-0.043270137 0.0850574 -0.08855136 0.05947835 0.08649279 -0.062142845 0.08286441 -0.06580624
0.015711104 -0.046902046 0.009120866 0.040909354 0.06370522 -0.049937714 0.0073448676 -0.03571638
0.07006914 -0.06951431 0.08411292 -0.026076516 0.09275245 -0.02328957 0.006115297 -0.06479804
-0.09548927 0.045902293 -0.05603478 -0.0035566469 0.0679387 -0.061141673 0.09432929 -0.037620176
0.058457796 -0.012661988 0.07198913 -0.10489931 -0.023728114 0.047945805 -0.030370656 -0.047337595
-0.06633232 -0.06462758 0.049068008 -0.09069351 -0.06013501 0.009762828 -0.08729748 0.07680615
-0.008132499 0.08890739 0.09560711 -0.038646813 -0.058402527 0.12314221 -0.07330619 0.081215814
-0.015563445 -0.12716979 -0.05982182 -0.0030871194 0.08089349 -0.030417144 0.053977 -0.003312685
0.073374555 0.054386716 0.052767564 -0.021355731 -0.0045712525 -0.06744756 0.080838524 -0.036254223
-0.096409336 -0.040475044 0.07965215 -0.07787134 0.109367564 0.13466305 -0.10650086 -0.040967137
-0.06599619 -0.15687852 0.095188685 -0.05101353 0.08050661 -0.041029993 0.0841295 0.008615539
0.092080094 -0.0035481865 0.0053094327 -0.026499046 -0.1389068 0.021233637 -0.025886739 -0.050314177
-0.058814522 0.027930718 -0.06794676 0.02224074 -0.048804145 0.13056098 -3.5790716e-05 0.011326224

model.6.bias f4 [100]
00000000: 73d2 cb3d 959e 853c 62d4 013d 29c0 253c
00000010: ecc0 8bbc 042a bdbc 06e6 35bd e834 df3d
00000020: dad6 d63d 7126 223d c6eb 67bd fd22 d93d
00000030: 4ddc 8ebc c94c 233c 3f2c e0bd 0924 12bd
00000040: 5b98 883d 661c 08bd 6792 cb3b b692 08ba
00000050: 47ae 3d3d 6817 483d 4881 a43d 2186 c03d
00000060: cfb1 f73d 2040 c73d 6ce8 953d ccbd cc3d
00000070: addf e63d 36e6 f9bb 12a1 ab3c a12f 0dbc
00000080: 4197 113d ac7f 223d ec22 033d 44b7 1dbd
00000090: 3829 9abd e9af 833d 1b6d 40bc 442b 8d3d
000000a0: eafe 62bd 3d65 49bd 734a 04bc 2aa7 9fbc
000000b0: 389d ad3d f4cf 70bd 6391 37bd aad0 013e
000000c0: a216 96bc ad9f acbd 9601 7cbd 78d5 923c
000000d0: e64d dc3d b0ae de3d f0fc 9cbd cf53 c93d
000000e0: 6abc 133d 3b61 1ebd 6742 69bd b4b5 67bd
000000f0: a558 c53d de84 48bd 704c d53d 8356 72bd
00000100: 5d8f b339 09b8 e2bc 8044 cdbc 48ae 933c
00000110: 2f38 13bc d339 ab3d 0a6b 243b 2ff0 4f3d
00000120: 6953 03bb 3b1f 0f3c 1f79 3e3d 7d18 a1bd
00000130: cd48 91bd 210b 4cbd 5042 2fbd f228 18bc
00000140: 5793 0c3d e741 0a3c cc8b 4e3d 2e97 073d
00000150: 07a1 53bd 7e5c b7bc 6aff 82bd 04bc eabc
00000160: 6987 a9bc f709 843d 3f6d 403d 715c 203d
00000170: 77a5 8c3d 0cb1 43bd 96f4 b7bd 574c e33d
00000180: 5ae5 c93d c1ad 603d a91c f7bc c6f1 c93b
0.099522494 0.01631097 0.031696685 0.010116615 -0.017059766 -0.023091324 -0.04440882 0.10898763
0.104901984 0.03958744 -0.056621335 0.106023766 -0.017439032 0.0099670375 -0.10945939 -0.035678897
0.066696845 -0.033230208 0.006212521 -0.000520985 0.046308782 0.048850447 0.08032471 0.09400583
0.12094461 0.09729028 0.073197216 0.099971384 0.112731315 -0.0076263202 0.020950828 -0.008617313
0.035544638 0.03967254 0.032015726 -0.038504854 -0.07527393 0.064300366 -0.011744763 0.06893018
-0.055418886 -0.049168814 -0.008074391 -0.01948889 0.08477253 -0.05879207 -0.044816386 0.12677255
-0.018321339 -0.08428893 -0.06152495 0.017924055 0.107570454 0.10873163 -0.076654315 0.09830438
0.036068358 -0.038666945 -0.05694809 -0.05656977 0.09636048 -0.048954837 0.1041497 -0.059164535
0.00034248354 -0.027675645 -0.025057077 0.01802744 -0.008985563 0.083606385 0.0025088214 0.050766166
-0.002003873 0.008735473 0.04650223 -0.07865999 -0.07093964 -0.0498153 -0.04278785 -0.009287106
0.0343202 0.008438564 0.05042629 0.03310316 -0.05166724 -0.02238297 -0.063963726 -0.028654106
-0.020694451 0.06447213 0.046979185 0.03915066 0.068674974 -0.047776267 -0.08982198 0.11098545
0.098581985 0.054853205 -0.030165033 0.006162855

model.8.weight f4 [100, 100]
00000000: 6234 833d e2ec 78bd d7e3 f13d 40a8 b23c
00000010: 475c 853c 6c69 c3bc d1e0 d03c c579 a4bd
00000020: 3584 c3bd 6d41 363e cc81 a6bd 3139 43bc
00000030: fc06 0dbb 9cb1 7ebb f8b0 8d3d 1742 923d
00000040: 9b8c cd3d 938f aa3d cc1d 163e 7dba 81bd
00000050: 8bd1 c7bd 192b 9e3d 082d 4abd 00aa 3cbe
00000060: 17b4 863d 3593 803d 0d56 febd 76e0 4d3c
00000070: 6835 59bd 7963 583e 7921 7d3d b2f2 353c
00000080: 98ee b1bd ff86 e53c 5eca 013e 19cf 82bd
00000090: a419 8f3d 3c47 55bd 6503 8e3d bb5d 51bc
000000a0: c015 18bc 9e04 dfbb 19ce 84bc 755f c4b8
000000b0: e5f4 2e3d c4be cbbc c7c9 e9bd 39c3 fbbd
000000c0: 455d b6bd d6ba aa3d 191f 853c 8ece 60bd
000000d0: 51e8 c3bd 14c2 a83d cb8a 423e 55c5 af3d
000000e0: 0e26 bdbc 6279 5d3c b8e0 65bc dd14 de3d
000000f0: d513 f63d 7d0a dd3d a170 c33c 2a82 423d
00000100: 24ce d43d b952 0a3e 7b40 4c3d d1a0 e5bc
00000110: 020e c3bd 2f17 9b3d 2fa5 5d3d a315 c63c
00000120: f98b 0b3d 94d7 62bd 3b50 9cbd 1fe0 b8bc
00000130: 58a4 2abd c7c2 1ebd 3770 1c3e 0b9c c4bc
00000140: 822a c33d d667 1bbe 7137 cf3d ce81 8ebc
00000150: c119 113d 5103 87bd 2014 023e 57ae 18be
00000160: 0055 b13c 1223 6ebd 330f b7bd 14cb 0b3e
00000170: 7b1c fc3d 33c6 f039 7c38 a03c 3fde c43d
00000180: 2301 a03c b469 8c3d 22c7 d2bc 4fe2 aebd
00000190: 310a 163d 6da3 46bc b42c f13d f800 ce3c
000001a0: c376 1a3c 1247 183c 64ac 933d fb5a a33d
000001b0: 26e8 5e3d 2b0e 303d 55b3 90bd ac4b 8e3c
000001c0: 77c6 0fbe 1ca9 863d 2115 a13c 731d cbbc
000001d0: 708f 323d a921 a8bd 676e 953d ee78 74bd
000001e0: b18a 973b 699e bebc bfad 6dbd f0f9 15be
000001f0: 30af 6bbd 2521 673d 8ba4 f3bc 07ca 35bc
00000200: c01e 553d 5349 103d 5b56 8f3b a5d9 72bd
00000210: 1cae d43d cbe5 c53d 40a1 803c 0dae 803d
00000220: 1a57 bcbc 15c8 213d 7b2f 933d 7988 c1bd
00000230: 4960 9ebc 320e bcbd 1d13 16bd 4c08 8a3c
00000240: 558d a93b 9a23 4f3c 46ab cebb 6a0f b6bd
00000250: f170 eabd 46fd 84bc 1c99 b6bd 3239 b43d
00000260: 961c 20bd fb69 4cbd e6b2 08bd b69e cd3d
00000270: 9ab2 abbd 2d1e 93bd 952c 0b3e 7f1a cc3c
00000280: f04e 903d d3ac d9bb 479f 3e3d 46be da3d
00000290: 7f2b 0dbe a083 9fbd f68b ddba ea8c fa3c
000002a0: 24f9 a8bd 3e94 d5bd 3a3d 7d3d fb5c e23d
000002b0: 9cd1 163d 25be 2abc bba3 ac3d a89a cebd
000002c0: d8e8 a1bd 78a9 343d 3136 633c eda2 42bd
000002d0: 8be6 883d 44cb 9f3d e890 163d e2cb e53c
000002e0: 3b96 efbc 3860 c0bd b00c 943d 13ef f8bd
000002f0: d9b4 c9bd 5e77 86bd 9ac1 273c 930a 15bd
00000300: 5019 e93d 93e3 e6bc f420 af3d b832 ea3d
00000310: a13f ce3d f545 71bd e107 5fbc 5ff5 ef3c
00000320: 437d 8fbc 26e2 ae3d cba3 e0bd d40c 07bd
00000330: 9dea 8fbd 063e a6bd a1a9 3a3d abaa 543d
00000340: 3a86 2cbd 0345 bf3d 422d 9c3b 77c8 7d3c
00000350: bcd6 043c 239c 5c3d 6530 5bbd a38a febd
00000360: ddc6 043d 97cf 043d 8eb0 0a3c d7d6 d8bd
00000370: f3ca 36bc 8614 e43d 8bb1 aabd 8c25 203d
00000380: 0ce1 093e 23ec bebd 7ebc 423d d909 543d
00000390: 3e84 043e 132b 073e 10be 05bd 1b3e b2bc
000003a0: f77f bebc ef69 803d a606 273e 221c 6bbd
000003b0: f364 c33d 5037 00bd 32b5 a53d 718f edbd
000003c0: 0ab2 ddbc 3020 e7bd afec f9bc befc b13d
000003d0: 29ec 9ebd d806 8cbd e08a c03d ec92 eb3d
000003e0: efa3 873d f739 adbd 333c 3c3c 295f 21be
000003f0: 6bc8 c73c 5cf1 eb3d 4276 4abd 00f7 c8bd
0.064064756 -0.060772784 0.11811035 0.021808743 0.016279353 -0.02385398 0.025497826 -0.08031038
-0.09546701 0.17798395 -0.081302255 -0.011915491 -0.0021519056 -0.0038863188 0.0691852 0.07141512
0.10036584 0.08328166 0.14659804 -0.06334398 -0.09756764 0.07723064 -0.04935935 -0.18424225
0.06577318 0.062780775 -0.12418757 0.012565723 -0.053029448 0.21131696 0.0617995 0.011105226
-0.08688086 0.028018473 0.12674853 -0.06387157 0.069873124 -0.052069888 0.06934241 -0.012778695
-0.009282529 -0.0068059703 -0.016211556 -9.3637886e-05 0.04271402 -0.024871238 -0.11415439 -0.12293095
-0.089045085 0.083364174 0.01625018 -0.054884486 -0.09565795 0.082401425 0.18998258 0.0858256
-0.023089435 0.013517709 -0.014030628 0.10843823 0.120155014 0.10793016 0.023857417 0.047487415
0.10390881 0.13508119 0.04986618 -0.028030785 -0.09524156 0.07572781 0.05411261 0.024180239
0.034069035 -0.055381373 -0.0763249 -0.022567807 -0.041660637 -0.038759973 0.15277182 -0.024000188
0.09529592 -0.15176329 0.101179965 -0.01739588 0.03542495 -0.065924294 0.1270299 -0.14910255
0.021646976 -0.058138914 -0.08938446 0.13651687 0.1231012 0.00045924037 0.019558184 0.096127026
0.019531792 0.06856099 -0.02572972 -0.08539259 0.036630813 -0.012123925 0.117761046 0.025146946
0.009427729 0.009294288 0.07210615 0.079763375 0.054420613 0.04298226 -0.07065455 0.017370068
-0.14040552 0.06575224 0.019663395 -0.024794316 0.043593824 -0.08209545 0.07296448 -0.05968564
0.0046246876 -0.023268895 -0.058027025 -0.14646125 -0.05754012 0.056428093 -0.029741546 -0.01109553
0.05203128 0.035226177 0.004374308 -0.059289593 0.10384771 0.0966297 0.01570189 0.062831976
-0.022990752 0.039497454 0.071867906 -0.09449858 -0.019333022 -0.09182395 -0.03663932 0.01684966
0.005174319 0.012642765 -0.0063070385 -0.08889659 -0.11447323 -0.016234051 -0.08915922 0.08799972
-0.03908976 -0.04990576 -0.033373736 0.10040037 -0.08383675 -0.0718349 0.13591225 0.024914978
0.07046306 -0.0066429167 0.046538617 0.10680823 -0.13786124 -0.07788777 -0.0016902674 0.030584771
-0.08250645 -0.104286656 0.06182597 0.11052891 0.036820993 -0.010421311 0.084296666 -0.10088092
-0.079057395 0.04410693 0.013867901 -0.04751866 0.066845976 0.07802442 0.036759287 0.02805132
-0.02924644 -0.09393352 0.072289824 -0.12154975 -0.09848947 -0.06565736 0.010239029 -0.036387037
0.11381781 -0.028184688 0.08551207 0.11435455 0.1007073 -0.058904607 -0.013612718 0.029291807
-0.017515784 0.08539228 -0.10968741 -0.03297122 -0.07027171 -0.08117299 0.045571927 0.051920574
-0.042120196 0.09339335 0.0047661373 0.015489689 0.008107837 0.05385984 -0.05351295 -0.124287866
0.032416213 0.032424536 0.0084649455 -0.105878524 -0.011156785 0.11136727 -0.08334645 0.039098307
0.13464755 -0.09322383 0.04754304 0.051767204 0.12941071 0.13200025 -0.03265196 -0.02175813
-0.023254378 0.06270205 0.1631113 -0.057399876 0.09540739 -0.03130275 0.08091201 -0.11599625
-0.027062435 -0.11285436 -0.030508367 0.08690785 -0.07759888 -0.06837243 0.09401488 0.115026325
0.06623065 -0.084583215 0.011488962 -0.15758957 0.024387559 0.11520645 -0.049429186 -0.098127365

model.8.bias f4 [100]
00000000: 39bd 643d dc11 a83d c507 aa3d 2010 69bd
00000010: dbac d9bd d2d3 80bc 7e76 723d 151d bcbd
00000020: f7ae 1cbd 557d 963d 191f afbc 33c3 bbbd
00000030: 1aab cdbc dfb7 803d 495e fbbc dd34 233d
00000040: 4205 d0bd e2c9 aa39 4be3 67bd 88dc 923c
00000050: 3f5f d9bc ddab 19bd db2e f03c 0647 1c3d
00000060: 2503 8bbd 7e7c 903b c7fb 19bc dba5 30bd
00000070: 401b 5e3d de57 df3d 1694 5abd 0ee2 56bd
00000080: 0101 c2bc bdf6 d93d 5f62 1e3d 7a11 b93d
00000090: 77aa b13d a2e9 bbbc 0df4 633d 8781 003e
000000a0: 66b9 bab8 0a35 c43d c68f fe3d e599 df3d
000000b0: 3d26 a4bd 468d 723d 30dd 95bd 7d60 633d
000000c0: 77fb 9fbd e8f3 863c 5441 a73b 4afe e13b
000000d0: 0d47 9f3d ed69 963d 4186 8abd f31f d0bd
000000e0: 9027 303d 9cf3 edbd 7465 363d 2e26 8ebc
000000f0: d6e6 883d 15db babd 04e3 993d f0c0 4e3d
00000100: a812 c33d 22b3 943d 9b7e d0bc d4fc eebd
00000110: 0754 c9bd 0fbd cfbd 856b bcbc 3c43 babd
00000120: 642c 1a3d a446 bb3d 1c97 9f3a 997e 3cbd
00000130: d714 a73d 7521 513d 2b10 733d b5a5 9e3c
00000140: 660d a8bd 7df5 96bd 89ba 973d 47c5 4e3d
00000150: e2cc 90bc a367 2a3d 8e7a 403d 6836 da3d
00000160: 2a8c d33d 5305 413d 7b3a 12bd 5be4 c1bd
00000170: f357 cabd 5758 84bc 1ff1 9d3d 9af8 3a3d
00000180: 4d51 5abd d705 e33c dfcd 83bd a235 7ebd
0.05584452 0.082065314 0.08302263 -0.056900144 -0.10628673 -0.015726004 0.059195034 -0.091852345
-0.038252797 0.07348124 -0.021377133 -0.09168091 -0.025106002 0.06285071 -0.030684607 0.039845336
-0.10157253 0.0003257534 -0.056613248 0.017927423 -0.026534675 -0.037517417 0.029319217 0.03815367
-0.06787709 0.004409372 -0.009398407 -0.043126922 0.054225206 0.10905431 -0.053363882 -0.052461676
-0.02368212 0.10642765 0.038668033 0.090365365 0.08675092 -0.022938553 0.055652667 0.12549411
-8.903704e-05 0.09580429 0.12429766 0.10918025 -0.08015106 0.05921676 -0.07317579 0.05551194
-0.07811635 0.016473725 0.0051042233 0.0068967687 0.07777224 0.073444225 -0.06763888 -0.10162344
0.04300648 -0.116187304 0.044530347 -0.01735219 0.066846535 -0.09123818 0.07514003 0.05047697
0.09525043 0.07260729 -0.025450995 -0.11669317 -0.0983048 -0.10143482 -0.023000488 -0.09094855
0.03763999 0.09144333 0.0012175771 -0.04601917 0.08158272 0.051057298 0.05934159 0.019366125
-0.082056805 -0.07371042 0.07408626 0.050481107 -0.01767582 0.041602742 0.046991877 0.106549084
0.103294685 0.04712422 -0.035700303 -0.094673835 -0.09880056 -0.016155405 0.07712006 0.04564724
-0.05330019 0.027712746 -0.06435751 -0.062062867
