mnist_mlp_6_layers.pt (torch, 525170 bytes, 14 tensors)

model.0.weight f4 [100, 784]
0	0x3d461f81	0.04836989
1	0x3c68b885	0.014204149
2	0x3cbcc6d3	0.023044026
3	0x3d3f68cd	0.046730805
4	0xbb6f8a5a	-0.003655097
5	0x3d527a3c	0.051386103
6	0x3cb94e3f	0.022620318
7	0x3d452b5c	0.048137054
8	0x3d0f1568	0.034932524
9	0x3cd1abdd	0.025594646
10	0x3d235245	0.03987338
11	0x3d01f6c5	0.03172948
12	0x3d302cd1	0.04301149
13	0x3c837ac9	0.01604976
14	0x3ce029fb	0.027363768
15	0x3cdb27d4	0.02675239
16	0x3d0ff35e	0.035144202
17	0x3cf45384	0.02982498
18	0x3d7aa023	0.061187875
19	0x3d284525	0.041081566
20	0x3c888a23	0.016667431
21	0x3c099620	0.008397609
22	0x3cc47499	0.02398138
23	0x3c6e981d	0.014562634
24	0x3c97bdae	0.018523064
25	0x3d01c076	0.031677686
26	0x3d51f3d0	0.05125791
27	0x3d4a4252	0.049379654
28	0xbba208ab	-0.004944881
29	0x3d556ed4	0.052107647
30	0x3d239d47	0.039944913
31	0x3d82c0f8	0.06384462
32	0x3d5b4e04	0.0535412
33	0xbb289f76	-0.0025729812
34	0xbb82bcce	-0.0039897924
35	0x3c50c1c5	0.012741511
36	0x3d7b33df	0.061328765
37	0x3cc4c2fd	0.024018759
38	0x3d395a0d	0.045251895
39	0x3c5b114c	0.013370823
40	0x3d852491	0.06501115
41	0x3c736ac6	0.014857
42	0x3d687361	0.05675066
43	0x3cf8f5a5	0.03039057
44	0x3c36ba05	0.011152749
45	0x3d45f0c1	0.048325304
46	0x3c34626f	0.0110097965
47	0x3d25c54f	0.04047137
48	0x3ca1034d	0.019654894
49	0x3cd56b4b	0.026052138
50	0xbb8f1e6d	-0.0043676407
51	0x3c540134	0.01293974
52	0x3d4a2085	0.04934742
53	0x3cae60a6	0.02128632
54	0x3d863a47	0.06554084
55	0x3d700224	0.05859579
56	0x3ce7cbb7	0.028295381
57	0x3bc8d58a	0.0061289715
58	0x3d53d473	0.05171628
59	0x3d2825f2	0.041051812
60	0x3be17bf7	0.006881233
61	0x3d59c43a	0.05316565
62	0x3d538ec8	0.05164984
63	0x3d7c7ccc	0.061642453
64	0x3c22fb90	0.0099476725
65	0x3cc55604	0.024088867
66	0x3cefd3ce	0.029275801
67	0x3d101d11	0.03518397
68	0x3b3ba85f	0.0028634293
69	0x3b9784e1	0.0046239947
70	0x3d4a53d8	0.049396366
71	0x3cb0e3ad	0.02159294
72	0x3d423440	0.04741311
73	0x3cd356b7	0.025798185
74	0xbc95bbc9	-0.01827802
75	0xbcb52bd6	-0.02211563
76	0x3d2fefd3	0.042953324
77	0x3d434348	0.047671586
78	0xbb4babe9	-0.0031077808
79	0x3d44616b	0.047944468
80	0x3b9f1ffd	0.004856108
81	0x3b45fa5f	0.0030209047
82	0x3d03a4c9	0.032139573
83	0x3cc3a384	0.023881681
84	0x3d50aa1f	0.05094349
85	0x3c181cef	0.009284242
86	0xbae98804	-0.0017817025
87	0x3d6535a8	0.055959374
88	0x3cca1cab	0.024671873
89	0x3d4d06e1	0.05005539
90	0x3d29c6a9	0.041449223
91	0x3b50d2c6	0.0031863912
92	0x3d1822cf	0.03714257
93	0x3d1de27f	0.03854608
94	0x3bc68d8e	0.006059355
95	0x3c55e984	0.013056163
96	0x3d2cc60d	0.042181063
97	0x3d1508c0	0.036385298
98	0x3c718b3d	0.01474267
99	0x3c9b9318	0.018991038
100	0x3b33ceb6	0.0027436442
101	0xbd15fe4c	-0.03661947
102	0xbc21c16f	-0.009872778
103	0x3d39b716	0.04534062
104	0x3be17fbf	0.0068816836
105	0xb9d43f73	-0.00040483064
106	0x3d83952f	0.06424939
107	0x3d0262cf	0.031832512
108	0x3d5f0528	0.054448277
109	0x3d190ffb	0.037368756
110	0x3d29cbd5	0.041454155
111	0x3d68044d	0.056644727
112	0x3d82ba97	0.063832454
113	0x3bcd6692	0.006268331
114	0x3d0d0991	0.03443295
115	0x3d67ea09	0.056619678
116	0x3d64b8d0	0.055840313
117	0x3d55a030	0.05215472
118	0x3b8705ae	0.00412055
119	0x3b8b409c	0.0042496454
120	0x3c09ae50	0.008403376
121	0x3d0d48e7	0.034493353
122	0x3d8652c1	0.06558753
123	0x3bf42381	0.0074505215
124	0x3d48dab8	0.04903671
125	0x3c23599a	0.009970093
126	0xbb76cf7c	-0.0037660291
127	0xbd19e2c8	-0.03756979
128	0xbc1a9fd1	-0.009437517
129	0x3b4e2110	0.0031452812
130	0xbd55b06e	-0.05217021
131	0xbc887ee8	-0.016662076
132	0x3d790e84	0.06080486
133	0x3d5bcc51	0.05366165
134	0x3d55a436	0.052158557
135	0xbb8cbb00	-0.004294753
136	0x3d573d09	0.052548442
137	0x3d208852	0.039192505
138	0x3bb5b710	0.0055455044
139	0xb7c6fef2	-2.3722157e-05
140	0x3c5edd99	0.013602638
141	0x3cd36d1f	0.025808869
142	0x3c045351	0.008076505
143	0x3d30443e	0.04303383
144	0x3d280565	0.04102077
145	0x3cb33f1a	0.021880675
146	0x3d32f891	0.043694083
147	0x3d2a251c	0.041539297
148	0x3d543b08	0.05181411
149	0x3d5d563f	0.05403733
150	0x3c8da57b	0.017290821
151	0x3d84d968	0.064867795
152	0x3cd26651	0.025683554
153	0xbcffac59	-0.031210111
154	0xbd827e50	-0.063717484
155	0xbd591c88	-0.053005725
156	0xbd506cd3	-0.050885033
157	0xbd3987a3	-0.04529537
158	0xbb977ee9	-0.004623283
159	0xbd2aa6bf	-0.041662928
160	0x3b54767e	0.003241926
161	0x3d329049	0.043594632
162	0xbc96b4d8	-0.01839678
163	0xbbd5abd8	-0.0065207295
164	0x3c39eba9	0.01134769
165	0x3d1a76e1	0.037711028
166	0x3c8afbf4	0.016965844
167	0x3cb3c2f8	0.021943554
168	0x3ac56e75	0.0015062826
169	0x3c604e0b	0.013690482
170	0x3c9be48b	0.019029876
171	0x3d394de9	0.045240317
172	0x3d1578e7	0.036492255
173	0x3d1ee1e5	0.03878965
174	0x3d8660c5	0.06561426
175	0x3d84ba82	0.06480886
176	0x3d5e8a04	0.05433084
177	0xbcec27b0	-0.028827518
178	0xbd6009e3	-0.05469693
179	0xbb087068	-0.0020818952
180	0xbd1f7c01	-0.03893662
181	0xbd06c5bd	-0.03290342
182	0xbd78fdbc	-0.060788855
183	0xbd17db0e	-0.03707414
184	0xbd594b9e	-0.05305063
185	0x3b37cbd4	0.0028045075
186	0xbd796316	-0.06088551
187	0xbd6cf719	-0.05785284
188	0xbcffcf88	-0.031226888
189	0xbd4a0489	-0.04932073
190	0xbc8d0433	-0.017213916
191	0xbd3314e9	-0.043721113
192	0x3c56c58a	0.01310862
193	0x3d03085e	0.0319904
194	0x3d64a4b2	0.05582113
195	0x3b9ec5f6	0.004845376
196	0x3d3f71b1	0.046739284
197	0x3d58ba38	0.052911967
198	0x3d84ec01	0.06490327
199	0x3ba2dc61	0.004970119
200	0x3d1e2d25	0.038617272
201	0x3b694761	0.0035595524
202	0x3d778bca	0.060436048
203	0xbd32aed5	-0.043623764
204	0xbc097cfa	-0.008391613
205	0xbcecccf8	-0.02890633
206	0xbd064c75	-0.03278776
207	0xbcff2e71	-0.031150075
208	0xbcc4197d	-0.023937935
209	0xbc57fe32	-0.0131831635
210	0xbcc6fe63	-0.024291223
211	0xbc9c9f63	-0.01911897
212	0xbd7e8810	-0.062141478
213	0xbb8306c7	-0.0039986107
214	0x3a93632d	0.0011244767
215	0xb9ff54c7	-0.00048700554
216	0xbb6d2a18	-0.003618842
217	0xbd6483fd	-0.055789936
218	0xbd312a74	-0.043253377
219	0x3ac40f9a	0.0014958263
220	0x3b34db9c	0.0027596718
221	0x3d7f75ff	0.06236839
222	0x3af63852	0.0018785095
223	0x3b9d9eed	0.004810205
224	0x3d424366	0.047427557
225	0x3b8d2480	0.0043073297
226	0x3cb27778	0.021785483
227	0x3d652b49	0.055949483
228	0x3d6e9e64	0.05825652
229	0x3d828c8c	0.063744634
230	0x3cb9fab1	0.022702547
231	0x39530c7c	0.00020127179
232	0x3bab1137	0.005220558
233	0xbd1a1550	-0.03761798
234	0xbd371b61	-0.044703845
235	0xbcada2aa	-0.021195728
236	0xbd613db7	-0.054990496
237	0xbbd67a65	-0.0065453523
238	0xbbfa3747	-0.007635984
239	0xbd6f07b0	-0.05835694
240	0xbd731aba	-0.05935166
241	0xbd07c5dc	-0.033147678
242	0xbc760d2b	-0.015017788
243	0xbcfe4715	-0.031039754
244	0xbd4520d7	-0.04812702
245	0xbcef38e0	-0.029201925
246	0xbd823867	-0.06358414
247	0xbd6244c7	-0.055241372
248	0xbd56e2bf	-0.052462336
249	0x3d7337d8	0.05937943
250	0x3d7bb2fb	0.061449986
251	0x3c921e43	0.017836696
252	0x3d014ef2	0.03156943
253	0x3d3bfcd4	0.045895413
254	0x3d0c4666	0.034246825
255	0x3c45fa74	0.012083638

model.0.bias f4 [100]
0	0xbd11fff3	-0.035644483
1	0xbba94870	-0.005166106
2	0xbd87d997	-0.06633299
3	0xbd578539	-0.052617285
4	0xbcb0b95d	-0.021572763
5	0xbd9a04d3	-0.075204514
6	0xbc8c4c51	-0.017126234
7	0xbd9884d4	-0.0744721
8	0xbcb85fec	-0.022506677
9	0xbdd32da4	-0.1031144
10	0xbd7dee1d	-0.06199466
11	0xbd478fab	-0.048720997
12	0xbd05da12	-0.03267867
13	0xbceb4cba	-0.02872311
14	0xbc2327d9	-0.009958231
15	0xbd37ba9e	-0.044855706
16	0xbcad47f9	-0.021152483
17	0xbd426dc7	-0.047467973
18	0xbe0a4843	-0.13504128
19	0xbd772411	-0.06033713
20	0xbd93740c	-0.071998686
21	0xbd53be54	-0.051695183
22	0xbd2d0b74	-0.04224725
23	0xbd844dc7	-0.06460147
24	0xbd79b60c	-0.06096463
25	0xbd8a6618	-0.06757754
26	0xbcf3ef9d	-0.029777342
27	0xbcb33e23	-0.021880215
28	0xbd116793	-0.035499167
29	0xbd73d544	-0.059529558
30	0xbd27c999	-0.040963743
31	0xbcf6acbd	-0.030111665
32	0xbc3e1982	-0.011602761
33	0xbda29eca	-0.07940443
34	0xbd09738a	-0.033557452
35	0xbd6c178f	-0.057639655
36	0xbd65516e	-0.05598586
37	0xbe423c7e	-0.18968388
38	0xbd127556	-0.03575643
39	0x3b818bbb	0.0039534247
40	0xbd248b8d	-0.04017215
41	0x3ba82feb	0.0051326654
42	0x3d91ef50	0.07125723
43	0xbdb24afd	-0.08705709
44	0xbd05706a	-0.03257791
45	0xbd95c74e	-0.07313405
46	0xbd16d864	-0.03682746
47	0xbd566299	-0.052340124
48	0xbda64045	-0.08117727
49	0xbd3c0bd1	-0.045909707
50	0xbd438a83	-0.047739517
51	0xbd4e1dd2	-0.050321408
52	0xbd7dc2a5	-0.061953206
53	0xbd1f3fac	-0.03887908
54	0xbd14968e	-0.036276393
55	0x3c8ab4f0	0.01693198
56	0x3bbb3517	0.005713116
57	0xbcafe1b2	-0.021469925
58	0xbd9862d4	-0.07440725
59	0x3d29beed	0.041441847
60	0x3cd883f3	0.026430106
61	0xbca90457	-0.020631952
62	0xbd2912cd	-0.041277695
63	0xbddb01e2	-0.106937185
64	0xba82c31a	-0.0009976358
65	0xbc0c25a8	-0.0085539
66	0xbd76a1fa	-0.060213067
67	0x392e464b	0.0001662012
68	0xbe1a4f97	-0.15069424
69	0xbcf97dce	-0.030455496
70	0xbd2103c5	-0.039310236
71	0xbd77d19f	-0.060502645
72	0xbcf9a6bd	-0.030475015
73	0xbcc5cc7d	-0.02414536
74	0xbce8fa63	-0.028439706
75	0xbd386a63	-0.045023333
76	0xbd3955a4	-0.04524769
77	0x3cbc5c8f	0.022993354
78	0xbceb9408	-0.02875711
79	0xbdb39086	-0.087678
80	0xbb9ff8b6	-0.0048819436
81	0xbd647556	-0.055775963
82	0xbd7966f4	-0.0608892
83	0xbd6f19d7	-0.058374252
84	0xbe8dab3b	-0.276697
85	0x3dbc2c01	0.091880806
86	0xbd997a02	-0.07493974
87	0xbd64ed8d	-0.05589061
88	0xbd7e67dc	-0.062110767
89	0xbda0fdb3	-0.07860889
90	0xbd8c4296	-0.06848638
91	0xbc5d44cd	-0.013505173
92	0xbd734753	-0.059394192
93	0xbcb839ae	-0.022488441
94	0xbd12f6d0	-0.03587991
95	0xbac13db9	-0.0014743126
96	0xbd23a494	-0.039951876
97	0xbc4c8607	-0.0124831265
98	0xbdd80800	-0.10548401
99	0xbd978074	-0.07397547

model.2.weight f4 [100, 100]
0	0xbdbab02c	-0.09115633
1	0xbe0247ef	-0.12722753
2	0xbe214194	-0.15747672
3	0x3df645ac	0.120250076
4	0x3c470a47	0.012148446
5	0x3b50a885	0.0031838727
6	0xbbc43683	-0.0059879436
7	0xbdaa6c9b	-0.08321496
8	0x3d204d92	0.039136477
9	0x3db018e0	0.085984945
10	0xbe1d1135	-0.15338595
11	0xbe15a1c5	-0.14612491
12	0x3d13815d	0.036012042
13	0xbc1b246a	-0.009469131
14	0xbe5b0ee7	-0.21392404
15	0x3e29198e	0.16513655
16	0x3e4a417e	0.19751546
17	0xbe156d6b	-0.14592521
18	0x3d4f7791	0.050651137
19	0xbdbb2105	-0.09137157
20	0x3d86ab4a	0.065756395
21	0xbd55ddea	-0.052213587
22	0x3baae49a	0.0052152397
23	0x3d998b8d	0.0749732
24	0x3e1a05c2	0.15041259
25	0xbdb01fb6	-0.085997984
26	0xbeede357	-0.4646251
27	0xbd29c3a4	-0.041446343
28	0x3ce7f949	0.02831711
29	0xbd16ce53	-0.03681786
30	0xbc766ce8	-0.015040614
31	0xbda83891	-0.08213914
32	0xbc420205	-0.011841302
33	0x3d722214	0.05911453
34	0xbd965cee	-0.07341944
35	0x3e0207c6	0.12698278
36	0xbe77e219	-0.24207343
37	0xbda06422	-0.07831599
38	0xbca4ae9a	-0.020102788
39	0x3daf9dc1	0.08575011
40	0xbea6f1b4	-0.3260628
41	0xbd9f24ab	-0.07770666
42	0xbea6d0d2	-0.32581192
43	0x3e237cd7	0.15965591
44	0xbda61314	-0.081091076
45	0x3d9eedc6	0.077601954
46	0x3ddd0505	0.10791973
47	0x3affff73	0.0019531086
48	0xbd58e8f3	-0.052956533
49	0x3d371dd5	0.044706184
50	0x3ca0c0a2	0.019623104
51	0x3e8f1e47	0.27952787
52	0xbceeda5a	-0.029156853
53	0xbde12c40	-0.10994768
54	0xbde292b0	-0.11063135
55	0x3cdec700	0.0271945
56	0xbda67bdc	-0.08129093
57	0xbe98c282	-0.29835898
58	0x3dd7aca2	0.10530974
59	0xbd02f89b	-0.03197537
60	0x3e149569	0.1451012
61	0xbe990098	-0.29883265
62	0x3d12c902	0.035836227
63	0xbd7e746a	-0.06212274
64	0xbd0b906e	-0.034073286
65	0xbdaec1c1	-0.085330494
66	0xbd258998	-0.040414423
67	0x3d0a2697	0.03372821
68	0xbc8eb0a6	-0.017418217
69	0xbe85569a	-0.26042634
70	0xbdc874ff	-0.0978794
71	0xbba6db8f	-0.0050920914
72	0x3cd2c983	0.025730854
73	0x3e79f5c6	0.24410161
74	0x3d7dfad1	0.062006775
75	0xbddb3a8d	-0.10704527
76	0x3e0d1702	0.13778308
77	0xbb2bae6b	-0.002619649
78	0x3d3c5295	0.045977194
79	0xbc33612f	-0.010948463
80	0x3e3191c0	0.17340755
81	0x3e60f009	0.21966566
82	0x3de62908	0.11238295
83	0x3d4a30a5	0.049362797
84	0x3c6db00b	0.014507304
85	0xbe9e5f77	-0.3093221
86	0x3e1be455	0.1522382
87	0x3d892d28	0.06698066
88	0x3e51163c	0.20418638
89	0xbcde0b9a	-0.027105141
90	0xbdd646da	-0.104627326
91	0x3d344320	0.044009328
92	0x3d3d1c67	0.046169665
93	0xbe11bc0d	-0.14231892
94	0xbbca2a09	-0.0061695618
95	0x3dc0d037	0.09414714
96	0xbda2e273	-0.07953348
97	0x3d0c149f	0.034199353
98	0x3cfcce64	0.030860133
99	0xbd92cb7b	-0.07167717
100	0xbdedb9ef	-0.1160773
101	0xbd310520	-0.04321778
102	0xbdbd8ac7	-0.09254985
103	0xbd27879a	-0.040900804
104	0xbdf4d6ee	-0.11955057
105	0xbc2e69b0	-0.010645315
106	0xbdff3890	-0.1246196
107	0xbd78d550	-0.060750306
108	0xbcec6076	-0.02885459
109	0x3c3f22f1	0.0116660455
110	0xbdb0ce9c	-0.086331576
111	0xbd536793	-0.051612448
112	0x3d1bbbbf	0.038020846
113	0xbc7e7bf3	-0.0155324815
114	0xbd45fd05	-0.048337
115	0xbd286652	-0.041113205
116	0xbdafd467	-0.085854344
117	0xbe036eeb	-0.1283528
118	0x3c49fbca	0.012328098
119	0xbd80af29	-0.06283409
120	0xbdbdf580	-0.09275341
121	0x3c02966a	0.007970432
122	0x3c894b0d	0.01675942
123	0xbb4545cd	-0.003010142
124	0x3d4bec4b	0.049785893
125	0x3d8619ad	0.06547866
126	0xbba1477b	-0.004921851
127	0xbde77d86	-0.113032386
128	0xbb3ed6db	-0.0029119763
129	0xbd7c07cd	-0.061530877
130	0x3cd09b1d	0.025464589
131	0xbddbcd69	-0.10732538
132	0x3d3fba64	0.046808615
133	0xbd097a66	-0.033563994
134	0xbdd0b918	-0.10191554
135	0xbd040c07	-0.032238033
136	0xbd36d811	-0.04463965
137	0x3d549876	0.05190321
138	0xbdc5c2bb	-0.096562825
139	0xbc93509b	-0.017982772
140	0xbdeeaef6	-0.11654465
141	0xbd59ac3f	-0.053142782
142	0xbd029945	-0.03188445
143	0x3ca44345	0.020051608
144	0xbd85800e	-0.06518565
145	0x3b50f5ed	0.0031884864
146	0xbd5e7ad6	-0.054316364
147	0x3d707f76	0.058715306
148	0x3d164e47	0.036695745
149	0x3cd3c463	0.02585048
150	0xbcc38213	-0.023865735
151	0xbdb68a30	-0.08913076
152	0xbda75069	-0.08169634
153	0xbd4442c2	-0.047915228
154	0x3c3a221b	0.01136067
155	0xbdcf4f8a	-0.10122593
156	0xbd01a38d	-0.031650115
157	0xbdc30df1	-0.095241435
158	0xbd8d6ac6	-0.06905131
159	0xbceb2944	-0.0287062
160	0xbd395eb1	-0.04525632
161	0xbdfc3613	-0.12315001
162	0xbdc299d6	-0.09501998
163	0x3cef2dc2	0.029196624
164	0xbdb20f6d	-0.086943485
165	0xbdc5eb32	-0.096640006
166	0xbd9208ee	-0.071306095
167	0xbdbd988f	-0.09257614
168	0x3da7bd98	0.08190459
169	0xbd8be778	-0.068312585
170	0xbe0f1cad	-0.13975783
171	0xbdffb2fd	-0.12485311
172	0xbc6683a1	-0.014069469
173	0x3b804633	0.0039146184
174	0x3ba362a6	0.004986125
175	0xbbfb1dcd	-0.0076634646
176	0xbd8ebd62	-0.06969716
177	0xbdc0ddd4	-0.0941731
178	0x3cf65a65	0.0300724
179	0xbe022e9b	-0.12713091
180	0xbe019da8	-0.12657797
181	0xbc0eb05a	-0.008709038
182	0xbd430e88	-0.04762128
183	0xbc13bc04	-0.009016994
184	0xbcc1e991	-0.023670943
185	0xbe004efe	-0.12530133
186	0xbda16af7	-0.0788173
187	0x3d462a4b	0.048380177
188	0xbdec7114	-0.115450054
189	0x3b9beab3	0.004758203
190	0xbd548a9d	-0.051890004
191	0xbdbd7d14	-0.092523724
192	0xbcf79f47	-0.030227317
193	0xbdf4659d	-0.11933444
194	0x3c597e72	0.013274776
195	0xbdaf5b32	-0.08562316
196	0xbdf47284	-0.119359046
197	0xbcd70297	-0.026246352
198	0xbc11052b	-0.00885133
199	0xbcac875e	-0.021060642
200	0xbc356b00	-0.011072874
201	0xbe048ec8	-0.12945092
202	0xbcab2b90	-0.020894796
203	0x3c6b5dd3	0.014365631
204	0x3d69e01d	0.057098497
205	0xbb9452d9	-0.004526478
206	0x3a6f9154	0.0009138782
207	0xbdce316e	-0.10068022
208	0xbe0478fd	-0.12936778
209	0xbd617336	-0.055041514
210	0xbdc8a897	-0.09797781
211	0xbe47c3ca	-0.19508281
212	0x3cfb92a5	0.030709574
213	0x3cba8a16	0.022770923
214	0xbdd7d2e8	-0.10538274
215	0xbdcc3267	-0.09970551
216	0xbdb1f06d	-0.08688436
217	0xbdb8811e	-0.09009002
218	0x3c458da0	0.012057692
219	0xbd81cb7c	-0.0633764
220	0x3cc65571	0.024210664
221	0xbd53826a	-0.051638044
222	0xbe01f5af	-0.12691377
223	0x3c6a357c	0.014294978
224	0x3d370035	0.04467793
225	0xbd5e49a9	-0.054269467
226	0xbe0e0754	-0.13869983
227	0xbd620159	-0.055177066
228	0xbcdc7b71	-0.02691433
229	0xbd5d379f	-0.054008123
230	0xbd9f05a0	-0.07764745
231	0x3d7ec3af	0.062198337
232	0x3ca349a6	0.01993258
233	0xbdd0cca7	-0.10195284
234	0xbdac6694	-0.08418003
235	0xbdbd365f	-0.09238886
236	0x3c506420	0.012719184
237	0x3d666c0d	0.05625539
238	0xbd0f5e57	-0.03500208
239	0xbd420c95	-0.04737528
240	0x3da114d3	0.078653
241	0xbdbbe563	-0.091746114
242	0xbe578e1d	-0.21050306
243	0x3c890c76	0.016729575
244	0x3ca5534b	0.020181319
245	0xbdaed12c	-0.0853599
246	0x3c9f381d	0.019435937
247	0xbd62f7f5	-0.05541225
248	0x3d84ea85	0.064900436
249	0xbd3cd1c4	-0.046098486
250	0x3d420b93	0.04737432
251	0xbdf8517d	-0.12124918
252	0xbdb3eb27	-0.08785086
253	0xbd6c9c7e	-0.05776643
254	0x3d60444b	0.05475263
255	0xbe139be2	-0.14414933

model.2.bias f4 [100]
0	0xbdd4af75	-0.10385028
1	0xbe10ce48	-0.1414119
2	0xbe2d1bc8	-0.16905129
3	0xbe2fc454	-0.17164737
4	0xbe1b4799	-0.15164031
5	0xbea0acff	-0.31381986
6	0xbe572a4d	-0.2101223
7	0x3d93d0d3	0.072175644
8	0xbe928a72	-0.2862125
9	0xbd1e8b59	-0.03870711
10	0xbe11329a	-0.14179459
11	0xbe2d3b92	-0.16917256
12	0xbe0f1f01	-0.13976671
13	0xbe943121	-0.28943732
14	0xbdfc7270	-0.12326515
15	0xbea331b8	-0.3187387
16	0xbd6f2a7f	-0.058390137
17	0xbd527f96	-0.051391207
18	0xbdc1a755	-0.09455744
19	0x3d4862d9	0.048922393
20	0xbdc354e4	-0.09537676
21	0xbe24795e	-0.16061923
22	0xbeaa1d3d	-0.33225432
23	0xbcc4604c	-0.0239717
24	0xbe3fc721	-0.18728305
25	0xbe3edbb7	-0.18638502
26	0xbe9c7c84	-0.30563748
27	0x3be350e6	0.006937134
28	0xbe0ade4c	-0.13561362
29	0xbeaf47a4	-0.34234345
30	0xbd72f52a	-0.059315838
31	0xbe04da24	-0.12973839
32	0x3be2ca9d	0.006921126
33	0x3d86f2fa	0.06589313
34	0xbeb2b54c	-0.34903944
35	0xbd186628	-0.0372068
36	0x3d78c28d	0.060732413
37	0x3ccbda08	0.024884239
38	0xbe26a0e3	-0.16272311
39	0xbd51a453	-0.051182102
40	0xbb8d58d0	-0.004313566
41	0xbe711e8b	-0.23546807
42	0x3bfda5ae	0.007740698
43	0xbe54f23c	-0.2079553
44	0xbc2ffe11	-0.0107417265
45	0xbc53b669	-0.012921908
46	0xbd028f25	-0.031874795
47	0xbd2ca6e5	-0.04215135
48	0xbce5d05e	-0.028053459
49	0xbd9c01ba	-0.07617517
50	0xbd97d1a7	-0.07413035
51	0x3e5f8569	0.21828236
52	0xbef8b598	-0.48576045
53	0xbecf8c9c	-0.40536964
54	0xbea048c4	-0.31305516
55	0xbe17b536	-0.1481522
56	0xbda93aec	-0.082631916
57	0xbdb12a59	-0.08650655
58	0xbca8dab6	-0.020612102
59	0xbdae5cdc	-0.08513805
60	0x3d1c19ce	0.038110547
61	0x3d120163	0.035645854
62	0xbde3c758	-0.11122006
63	0xbdbe6178	-0.092959344
64	0xbe5806b7	-0.21096312
65	0x3d2edd45	0.042691488
66	0xbcc978b8	-0.024593696
67	0xbd9978f7	-0.07493775
68	0xbd884b66	-0.06655006
69	0xbdcb7061	-0.09933544
70	0x3e99eaa3	0.30061826
71	0xbda7ca0b	-0.081928335
72	0xbd77c3a7	-0.060489323
73	0xbebf36c7	-0.3734648
74	0xbd0b6c2d	-0.03403871
75	0xbe612b03	-0.21989064
76	0xbc8dbe47	-0.017302645
77	0x3d67a4f3	0.056553792
78	0xbde47fd8	-0.11157197
79	0x3e7cd6c3	0.246913
80	0x3d90b0d5	0.07064978
81	0xbdb0c7fc	-0.08631894
82	0xbea28a8f	-0.31746337
83	0xbd26afa2	-0.04069484
84	0x3da1e2a9	0.0790456
85	0xbe1d8583	-0.15382962
86	0x3d50739f	0.050891515
87	0xbe5e981e	-0.21737716
88	0xbe1f15c2	-0.15535644
89	0xbd11ae4d	-0.035566617
90	0xbe5640b4	-0.2092312
91	0x3e843fca	0.25829917
92	0x3e5310f1	0.20611931
93	0x3e8bdd3b	0.27317223
94	0xbccff300	-0.025384426
95	0x3db2f671	0.08738411
96	0xbd87d9ab	-0.06633314
97	0xbdd8cf84	-0.105864555
98	0xbc0de085	-0.008659487
99	0xbdcd7fd4	-0.10034147

model.4.weight f4 [100, 100]
0	0x3e688a0b	0.22708909
1	0x3deb736b	0.114966236
2	0xbd8f3901	-0.069932945
3	0x3e53821a	0.20655099
4	0x3c836680	0.016040087
5	0x3c16d146	0.009205168
6	0xbd6c1f11	-0.057646815
7	0x3d034b07	0.032053974
8	0xbd48168e	-0.048849635
9	0xbe0b8cb3	-0.13627891
10	0xbdf77256	-0.12082355
11	0xbd68a604	-0.05679895
12	0x3e940154	0.28907263
13	0x3e7e3585	0.24825104
14	0xbdbf4446	-0.09339194
15	0x3d0e217e	0.03469991
16	0xbcc05ad8	-0.023480818
17	0xbd03f7ab	-0.032218616
18	0x3dc500bd	0.096192814
19	0xbd142d4e	-0.03617602
20	0x3da93271	0.08261574
21	0x3e12bf3a	0.1433076
22	0x3e6f0420	0.23341417
23	0x3e58d7ef	0.21176122
24	0x3e02618f	0.12732528
25	0x3de41df3	0.11138525
26	0x3e130a9b	0.14359514
27	0xbe0b0f4a	-0.13580051
28	0x3dd90233	0.105961226
29	0x3e24dd8c	0.16100138
30	0xbe858375	-0.26076856
31	0x3dd8591e	0.10563873
32	0xbe8c8e91	-0.2745252
33	0x3d238b8d	0.039928008
34	0x3e450ba9	0.19242729
35	0xbe0100aa	-0.1259791
36	0xbe55ceef	-0.2087972
37	0xbc0be08d	-0.008537424
38	0x3e51b6c1	0.20479871
39	0x3dad8676	0.08472912
40	0xbe0d2d20	-0.13786745
41	0xbdd1baba	-0.102406934
42	0xbe9890aa	-0.2979787
43	0x3ea6e7e3	0.3259879
44	0x3d2d63be	0.04233145
45	0xbdb68e32	-0.0891384
46	0xbd920ab9	-0.071309514
47	0x3e99ef51	0.30065396
48	0x3e3999ef	0.18125127
49	0xbe097007	-0.13421641
50	0x3e075de3	0.13219409
51	0xbc14dc53	-0.0090857325
52	0x3d18a4a8	0.037266403
53	0x3ed4027c	0.41408145
54	0x3ebea8ce	0.37238163
55	0xbc9c288c	-0.019062303
56	0xbe538711	-0.20656992
57	0xbd8eea91	-0.06978334
58	0xbd935b89	-0.07195193
59	0x3d88356d	0.06650815
60	0xbc646e00	-0.013942242
61	0xbe8b8081	-0.27246478
62	0xbcc7f83b	-0.024410358
63	0x3d8f3eee	0.06994425
64	0x3e0f9d06	0.14024743
65	0xbd6b0215	-0.057375032
66	0xbdbdf768	-0.092757046
67	0xbe747d14	-0.23875839
68	0xbe6ad462	-0.2293258
69	0x3df788dd	0.120866515
70	0xbe8e8c2d	-0.2784132
71	0xbe138f78	-0.14410198
72	0x3e8d264c	0.2756828
73	0x3e9dc433	0.3081375
74	0x3cb2894d	0.021793986
75	0xbd84f263	-0.06491544
76	0x3d699f5e	0.05703675
77	0xbe19c16e	-0.15015194
78	0xbd50f915	-0.051018793
79	0xbdf4953d	-0.119425274
80	0x3c4c4182	0.01246679
81	0x3debde39	0.11516995
82	0x3d647fbd	0.055785883
83	0xbe36878e	-0.17825148
84	0xbdeeec45	-0.116661586
85	0x3eb836c9	0.35979298
86	0xbe232951	-0.1593373
87	0x3df4648f	0.119332425
88	0xbddb92f3	-0.10721388
89	0xbe0bcb22	-0.13651708
90	0x3d2283ad	0.039676357
91	0xbebb804c	-0.3662132
92	0xbd946a79	-0.072468705
93	0xbca28c48	-0.019842282
94	0xbe42fc0a	-0.19041458
95	0xbe2890f3	-0.16461544
96	0x3de3d018	0.11123675
97	0xb98e6c1f	-0.00027164907
98	0xbda04449	-0.07825524
99	0x3ccf681c	0.025318198
100	0xbd60fc53	-0.054928135
101	0x3de200c0	0.11035299
102	0xbd80686a	-0.062699154
103	0x3d98eaf3	0.07466688
104	0xbdf3bdd7	-0.119014435
105	0xbc34b680	-0.0110298395
106	0x3dd22e4f	0.10262739
107	0xbd3e6316	-0.046481214
108	0x3e453342	0.19257835
109	0x3dcde030	0.10052526
110	0xbd81b37e	-0.063330635
111	0x3d30e957	0.04319128
112	0x3e62b259	0.22138347
113	0xbd2324e9	-0.039830122
114	0xbe4901f1	-0.19629647
115	0xbdf97f11	-0.12182439
116	0x3d177724	0.036978856
117	0xbd5da4f4	-0.05411239
118	0xbc683616	-0.014173051
119	0x3d8dab12	0.06917395
120	0xbd2751ae	-0.04084938
121	0xbd665e01	-0.056241993
122	0x3e903936	0.28168648
123	0x3d807fee	0.06274401
124	0x3e8cf641	0.27531627
125	0xbe302f72	-0.17205599
126	0xbcd07bdb	-0.025449684
127	0xbd76d77e	-0.060264103
128	0xbdf7046d	-0.12061391
129	0x3e37c0fa	0.17944708
130	0xbe2477c5	-0.16061313
131	0xbe6a6860	-0.22891378
132	0x3d40081b	0.04688273
133	0xbe4e9061	-0.20172264
134	0x3e9554f1	0.29166368
135	0xbd928617	-0.07154482
136	0xbd410fd4	-0.047134236
137	0xbd08491b	-0.033272844
138	0x3c6f3716	0.014600536
139	0x3d9e64cc	0.07734069
140	0xbd96b0e2	-0.073579565
141	0xbdba5154	-0.09097543
142	0xbe13525e	-0.1438689
143	0xbe0b4b97	-0.13603054
144	0x3de4ff74	0.11181536
145	0xbdae1ddd	-0.0850179
146	0xba05c962	-0.0005103556
147	0x3d351fa0	0.044219613
148	0x3cc2f5e8	0.023798898
149	0xbcf5e319	-0.030015515
150	0xbcc27d89	-0.0237415
151	0xbddc3fa6	-0.107543275
152	0x3e0becb4	0.13664514
153	0x3ebfaf32	0.3743835
154	0x3e8ab1d0	0.27088785
155	0xbdb17cf8	-0.08666414
156	0xbbcaf742	-0.006194026
157	0xbdcfaea9	-0.10140736
158	0x3dbabbca	0.09117849
159	0x3e5f3d4a	0.21800724
160	0x3e7388af	0.2378261
161	0x3cd923bd	0.0265063
162	0xbd89912d	-0.06717143
163	0x3b72543d	0.003697648
164	0x3e8da148	0.2766211
165	0xbe2b5d7e	-0.16734883
166	0xbd291d6d	-0.04128783
167	0x3dc53874	0.09629908
168	0xbd985d24	-0.0743964
169	0xbd4ea6fd	-0.05045222
170	0xbdb6bd38	-0.08922809
171	0xbdb8e332	-0.09027709
172	0x3c9b7155	0.01897494
173	0x3eb240a3	0.3481494
174	0xbe8847fc	-0.2661742
175	0x3dd7bfe4	0.10534647
176	0x3c3b6d76	0.011439672
177	0xbe49107b	-0.19635193
178	0xbd7b84a8	-0.061405808
179	0xbe077369	-0.13227619
180	0xbd8f893b	-0.070085965
181	0xbd44d5b6	-0.048055373
182	0x3e47a3cc	0.19496077
183	0xbcb0fad7	-0.021603985
184	0xbde32bdd	-0.11092351
185	0xbe010677	-0.12600122
186	0xbd01e006	-0.031707786
187	0xbd7e6025	-0.06210341
188	0x3e65efe3	0.22454791
189	0xbe0302c3	-0.12794022
190	0x3d3754a7	0.044758465
191	0x3d1a004a	0.037597932
192	0x3da3017f	0.0795927
193	0xbcd6f558	-0.026240036
194	0x3e128624	0.14308983
195	0xbe22f6cd	-0.1591446
196	0xbeac9a5d	-0.3371152
197	0x3e235690	0.1595099
198	0xbe2f9130	-0.17145228
199	0xbdab577b	-0.08366295
200	0xbde89b87	-0.113577895
201	0xbdb53770	-0.088484645
202	0xbda1e639	-0.079052396
203	0xbdeffb34	-0.11717835
204	0x3e705bef	0.2347257
205	0x3df4c5b2	0.1195177
206	0x3f10c448	0.565495
207	0xbda5fbc0	-0.08104658
208	0x3ecd978c	0.40154684
209	0x3c849313	0.016183412
210	0xbdfe116e	-0.12405668
211	0xbc1a10a1	-0.009403379
212	0xbdf0530d	-0.11734591
213	0x3e0cdb94	0.13755637
214	0xbbf09e41	-0.007343084
215	0xbe011889	-0.12607016
216	0x3db8d325	0.090246476
217	0xbe471df9	-0.19445027
218	0x3d976ea6	0.073941514
219	0xbe9933e6	-0.29922408
220	0x3ec423f3	0.38308677
221	0xbe3f23ce	-0.18666002
222	0x3d26d568	0.040730864
223	0xbeb09b29	-0.34493378
224	0x3e168169	0.14697804
225	0x3de01576	0.10941593
226	0x3f067b09	0.52531487
227	0x3e3d7b9d	0.18504186
228	0xbf00c8cd	-0.503064
229	0x3e17f5eb	0.14839904
230	0xbe2c4570	-0.16823363
231	0xbdfc8d66	-0.12331657
232	0xbe533150	-0.2062428
233	0xbeb435a1	-0.35197166
234	0x3ddd29f7	0.1079902
235	0xbeca03f7	-0.3945615
236	0xbe8e68cf	-0.27814338
237	0xbcd67090	-0.02617672
238	0xbd42ff89	-0.04760698
239	0xbeb5cd56	-0.3550822
240	0xbc85f95b	-0.016354254
241	0xbdd6ce9d	-0.10488627
242	0xbe9fcbc7	-0.31210157
243	0xbdb66c45	-0.089073695
244	0x3d275e85	0.040861625
245	0x3e9e8a84	0.30965054
246	0xbe9ca3e7	-0.30593798
247	0x3ec5ed14	0.3865744
248	0xbe65b3bb	-0.22431843
249	0xbe9ab9f1	-0.30219987
250	0x3d68169b	0.056662183
251	0xbe15d99b	-0.14633791
252	0x3e5bb87d	0.21457095
253	0x3d732864	0.05936469
254	0xbc30271f	-0.010751515
255	0xbe1b8aa5	-0.15189607

model.4.bias f4 [100]
0	0xbe251a05	-0.16123207
1	0xbd900b93	-0.070334576
2	0xbecac6f1	-0.39604905
3	0xbd8d35f9	-0.0689506
4	0x3e3ba995	0.18326409
5	0xbde233e3	-0.11045053
6	0x3db92ae6	0.09041385
7	0xbdb9ad51	-0.090662606
8	0xbec31b0d	-0.38106576
9	0x3da699ce	0.08134805
10	0xbe009b27	-0.12559186
11	0x3e40df30	0.1883514
12	0xbcf8e2f3	-0.030381655
13	0xbd8bc6ae	-0.068250045
14	0xbd827bf3	-0.06371298
15	0xbda7f341	-0.08200694
16	0xbd79f7a6	-0.06102719
17	0xbe3c4d11	-0.18388774
18	0x3ebfa49e	0.3743028
19	0x3e953c4c	0.29147565
20	0xbe84f8fc	-0.2597121
21	0x3ce56a5c	0.028004818
22	0x3de5139b	0.1118538
23	0x3dda334c	0.10654315
24	0xbaa5ba20	-0.001264397
25	0x3c096081	0.008384825
26	0xbe8cf06c	-0.27527177
27	0xbdc2134e	-0.09476338
28	0xbdc45618	-0.095867336
29	0xbdb54a3e	-0.08852051
30	0xbe8dcc1b	-0.27694783
31	0xbe22c826	-0.15896663
32	0x3cbe0de6	0.023199987
33	0x3ce7cedc	0.02829688
34	0xbe5e72ad	-0.21723433
35	0x3e9d12df	0.3067846
36	0x3c9f6c56	0.019460838
37	0xbe0bd4ba	-0.13655367
38	0x3be58c5a	0.0070052566
39	0xbe2cbfa4	-0.1686998
40	0x3d15b735	0.036551673
41	0xbe4db1ef	-0.20087408
42	0xbe8378e4	-0.2567817
43	0xbe69e6f2	-0.22842005
44	0xbde79f2d	-0.11309657
45	0xbd67cc02	-0.05659104
46	0xbce88246	-0.028382432
47	0xbcf56b9c	-0.029958539
48	0xbe0c4068	-0.13696444
49	0x3d51f992	0.0512634
50	0xbe773e19	-0.24144782
51	0xbdf9ce5d	-0.12197564
52	0xbc4d5f1d	-0.012534884
53	0xbe269f11	-0.16271617
54	0xbda6ab88	-0.08138186
55	0x3e200e8a	0.15630546
56	0xbe62e4ac	-0.22157544
57	0xbc0115a6	-0.007878697
58	0xbe20f08d	-0.15716763
59	0xbe2ab11e	-0.16669127
60	0x3dcc736c	0.099829525
61	0xbe45d31a	-0.1931881
62	0x39dae4a1	0.00041750542
63	0xbddfb016	-0.109222576
64	0xbdc00f0d	-0.09377871
65	0xbe30a1f1	-0.17249276
66	0xbd8250be	-0.063630566
67	0xbe800b6c	-0.25008714
68	0x3da1e96e	0.07905851
69	0x3ec7cb13	0.3902212
70	0xbe866717	-0.26250526
71	0x3d01b1e8	0.031663805
72	0x3ee8b7a2	0.454526
73	0x3e871cba	0.26389104
74	0xbe0ed410	-0.13948083
75	0x3e41701c	0.18890423
76	0xbd8df050	-0.069306016
77	0xbdcc4d7a	-0.09975715
78	0xbe995044	-0.2994405
79	0xbd1b88e3	-0.037972342
80	0xbcc035c5	-0.02346314
81	0xbddf21e6	-0.108951375
82	0x3d5b3cb3	0.053524684
83	0xbcf724ee	-0.030168977
84	0xbdc25175	-0.09488193
85	0xbd8d80f5	-0.06909362
86	0xbe48e03a	-0.19616786
87	0xbe15d674	-0.14632589
88	0xbe248a0b	-0.16068284
89	0xbe541e32	-0.20714644
90	0xbec7d56b	-0.39030012
91	0xbeab1d3b	-0.3342074
92	0x3bc7e4b9	0.006100264
93	0xbda0b4bb	-0.078469716
94	0xbe0181fc	-0.12647241
95	0x3df253b9	0.11832375
96	0xbdd8a17a	-0.10577674
97	0xbe85e266	-0.2614929
98	0xbcde0924	-0.027103968
99	0xbda36cbd	-0.079797246

model.6.weight f4 [100, 100]
0	0xbd857d0f	-0.06517994
1	0xbdcbc962	-0.0995052
2	0x3e48b6b1	0.19600941
3	0xbcbfa937	-0.023396118
4	0x3de2becb	0.11071547
5	0x3d548cb7	0.05189201
6	0xbe10e458	-0.14149606
7	0xbdb7093e	-0.0893731
8	0xbc8c110c	-0.017097972
9	0x3de87693	0.11350741
10	0x3e1fb827	0.15597592
11	0x3df52be5	0.11971263
12	0x3e99242d	0.29910412
13	0xbe177308	-0.14789975
14	0xbdc596b9	-0.09647889
15	0xbcc8d75a	-0.02451675
16	0xbe61aa2d	-0.22037573
17	0xbdc2640a	-0.09491737
18	0xbd222e1e	-0.039594762
19	0x3e90ce19	0.2828224
20	0xbddc9b5a	-0.107718185
21	0x3c3776dd	0.011197773
22	0xbdd4161a	-0.10355778
23	0x3d1f25cb	0.0388544
24	0xbe34c860	-0.17654562
25	0x3d652b1e	0.055949323
26	0xbe1f3d21	-0.15550663
27	0xbcc5d9d7	-0.024151726
28	0x3df549c6	0.11976962
29	0xbdd461e6	-0.10370235
30	0xbe4d2e41	-0.20037176
31	0xbd69ac0a	-0.057048835
32	0xbc912c9e	-0.01772147
33	0x3e6399da	0.22226658
34	0xbe10be36	-0.1413506
35	0x3e403bee	0.18772861
36	0x3cf38c41	0.029729964
37	0xbbc4d706	-0.006007078
38	0x3e11e00f	0.14245628
39	0xbb9f1f36	-0.0048560156
40	0x3dd14bfe	0.102195725
41	0x3c592f92	0.013255971
42	0xbe056dad	-0.13030119
43	0xbe09fb26	-0.13474712
44	0xbdb66b88	-0.08907229
45	0x3e1ca188	0.15295994
46	0xbb9f46ab	-0.004860719
47	0xbe8fa4c5	-0.28055397
48	0xbcd866f0	-0.026416272
49	0xbebdae6f	-0.37047145
50	0x3dd409c2	0.10353424
51	0xbdc8788b	-0.09788617
52	0xbd204a89	-0.039133582
53	0x3e0c4b00	0.13700485
54	0x3ca8f0b8	0.020622596
55	0xbdc13d89	-0.09435565
56	0x3e17581d	0.14779706
57	0xbe4df2ee	-0.20112202
58	0x3ba0b48a	0.0049043344
59	0xbd040460	-0.032230735
60	0x3ddb278a	0.10700901
61	0xbe2213ac	-0.15827817
62	0x3cb6580d	0.022258783
63	0xbd25a331	-0.040438835
64	0xbe007ce9	-0.1254765
65	0x3e1792bd	0.1480207
66	0xbdb437e8	-0.08799726
67	0x3de49074	0.11160365
68	0x3d2a7864	0.04161872
69	0x3d3972ed	0.045275617
70	0xbdeca1e6	-0.11554317
71	0xbb003616	-0.0019563488
72	0xbdd27655	-0.10276476
73	0xbe12e3cb	-0.14344709
74	0xbdcd3a31	-0.10020865
75	0xbbcec2d9	-0.0063098487
76	0x3dcce859	0.10005254
77	0xbd7ac9ad	-0.06122749
78	0xbdecd469	-0.115639515
79	0xbbfee5c9	-0.0077788574
80	0xbd8626dc	-0.065503806
81	0x3d4379a4	0.047723427
82	0xbe3ffa54	-0.18747836
83	0xbe9b5714	-0.30339873
84	0x3e21ee4d	0.15813561
85	0xbd9c6bd8	-0.07637757
86	0x3c3b52eb	0.011433343
87	0xbef8e234	-0.4861008
88	0x3e6e740c	0.23286456
89	0x3d39f8e3	0.045403372
90	0x3a12d583	0.0005601274
91	0x3e48a40d	0.1959383
92	0xbde9bf00	-0.114133835
93	0x3e2c8810	0.16848779
94	0xbc82fb98	-0.01598911
95	0x3e4a5d54	0.19762164
96	0xbdde5e8e	-0.108578786
97	0xbe4fba8a	-0.20286003
98	0xbd7e154e	-0.062032036
99	0x3d2670b3	0.040634822
100	0x3d3ea982	0.046548374
101	0xbccc9597	-0.024973674
102	0xbe8114c8	-0.25211167
103	0x3d5f91b4	0.054582313
104	0xbda40ce8	-0.08010274
105	0xbe21c0b8	-0.15796173
106	0xbc4e2773	-0.012582648
107	0xbe0440ab	-0.12915294
108	0xbdaf181d	-0.08549521
109	0xbeb13209	-0.34608486
110	0x3d9c7b72	0.07640733
111	0xbdf94b6b	-0.12172588
112	0xbe54a583	-0.20766263
113	0xbdd505da	-0.10401507
114	0x3e21f45e	0.15815875
115	0xbd93cba5	-0.072165765
116	0xbe0b2872	-0.13589647
117	0xbe4cf358	-0.20014703
118	0x3d47f0f0	0.04881376
119	0x3c0f65c7	0.008752293
120	0x3d1843f7	0.03717419
121	0x3d9f80ae	0.077882156
122	0xbd9e5bf4	-0.077323824
123	0xbe053047	-0.13006698
124	0x3e05fca8	0.13084662
125	0xbe9d48f0	-0.3071971
126	0xbe8146b1	-0.25249246
127	0xbe30b8de	-0.17258021
128	0xbd4999a6	-0.049218796
129	0x3d0000dc	0.03125082
130	0x3cc3ddb3	0.023909425
131	0xbd87c2ff	-0.066289894
132	0x3cef7fe9	0.029235797
133	0x3db426b7	0.08796447
134	0x3d5141ed	0.051088262
135	0x3e5b48bc	0.21414465
136	0x3dfaeea9	0.12252552
137	0x3a88a19a	0.0010424138
138	0x3d173760	0.036918044
139	0x3d640108	0.055665046
140	0xbe3f1baf	-0.18662904
141	0xbd360305	-0.044436473
142	0xbd86abe1	-0.06575752
143	0xbe345858	-0.17611825
144	0xbe21f404	-0.15815741
145	0x3e2c08a5	0.16800173
146	0xbe515f4e	-0.20446512
147	0xbd8d24db	-0.06891795
148	0xbd13e7f5	-0.036109883
149	0xbe0411e3	-0.12897448
150	0x3db023d4	0.08600584
151	0xbde16ac0	-0.11006689
152	0x3de143c6	0.10999255
153	0xbcdfe792	-0.027332101
154	0x3d3f2308	0.046664268
155	0x3e619cee	0.2203252
156	0xbd24611c	-0.040131673
157	0x3c769f19	0.01505258
158	0xbd87dec1	-0.06634284
159	0x3da61cbb	0.08110949
160	0xbe66997d	-0.22519489
161	0xbe00de6e	-0.1258485
162	0xbe286284	-0.1644383
163	0x3c1b1a1e	0.009466676
164	0xbe51754a	-0.20454898
165	0x3d626c85	0.055279274
166	0xbdf3aaa6	-0.11897783
167	0xbcfeaa72	-0.031087134
168	0xbd3941ef	-0.045228895
169	0x3c329339	0.010899358
170	0xbe630650	-0.22170377
171	0x3debcf9e	0.11514209
172	0x3da4fc97	0.0805599
173	0x3d30f407	0.043201473
174	0x3c3ebe53	0.0116420565
175	0xbe9e5c94	-0.30930007
176	0x3e046739	0.12930001
177	0xbcc46790	-0.023975164
178	0x3d6d169f	0.0578829
179	0xbe16685b	-0.14688246
180	0xbe233bdf	-0.15940808
181	0xbd632f64	-0.055465117
182	0x3d371620	0.044698834
183	0xbdd3694f	-0.103228204
184	0x3e26e615	0.16298707
185	0xbe2be9ff	-0.16788481
186	0xbe19acc2	-0.15007308
187	0x3e598524	0.21242195
188	0xbe5c976d	-0.2154214
189	0xbe60ccab	-0.21953075
190	0x3e1bf04a	0.15228382
191	0x3ca0d9e8	0.019635156
192	0xbda195e8	-0.078899205
193	0x3e8510cc	0.25989377
194	0x3decaec9	0.11556775
195	0x3d3621c1	0.044465784
196	0x3d6a1e1a	0.057157613
197	0x3d9fd540	0.07804346
198	0x3cc75f65	0.02433748
199	0xbd31fb88	-0.04345277
200	0xbddc3eb4	-0.10754147
201	0xbd4f88dd	-0.050667632
202	0xbd99129b	-0.07474252
203	0xbd8f5002	-0.06997682
204	0xbcaecb16	-0.021337073
205	0xbdb0ec3f	-0.0863881
206	0xbdff7310	-0.12473118
207	0xbe031853	-0.12802248
208	0xbd80ba6f	-0.062855594
209	0xbdc78593	-0.09742274
210	0x3d86e2e8	0.06586248
211	0xbaa53281	-0.0012603552
212	0x3d03fec3	0.03222538
213	0x3d4e4dbc	0.050367102
214	0xbd04187d	-0.032249916
215	0x3d14531b	0.036212068
216	0xbde01d21	-0.10943056
217	0xbd9b18ef	-0.07573115
218	0xbcf2ac35	-0.02962313
219	0xbe099014	-0.13433868
220	0xbcfbfa72	-0.03075907
221	0xbc020d2d	-0.007937712
222	0xbd7f5ff1	-0.062347356
223	0xbdd592e5	-0.104284085
224	0xbda30b88	-0.07961184
225	0xbd4c4f39	-0.04988024
226	0x3daad1cd	0.083407976
227	0xbd66e6ba	-0.05637238
228	0x3c425de1	0.011863203
229	0x3d277505	0.040883083
230	0xbd9469ad	-0.072467186
231	0xbd3cdd41	-0.04610944
232	0xbd9d1ef5	-0.0767192
233	0xbdf2cf31	-0.11855925
234	0xbde80508	-0.11329085
235	0xbd09cb3e	-0.033641092
236	0xbbbcc5cd	-0.0057608844
237	0xbd83c775	-0.06434528
238	0xbd203e4a	-0.039121903
239	0x3c68ebcd	0.014216376
240	0xbdbd2b9c	-0.092368335
241	0xbd145845	-0.036216993
242	0xbde610d9	-0.11233682
243	0x3ce824d5	0.028337875
244	0x3d63fa0d	0.05565839
245	0xbda6b7a9	-0.08140499
246	0xbc9e63aa	-0.019334633
247	0xbd09942b	-0.03358857
248	0xbe2377f3	-0.15963726
249	0xbb94613a	-0.004528192
250	0xbdb4ca31	-0.088276275
251	0xbcfbb40a	-0.030725498
252	0x3d439ef0	0.047758996
253	0xbd9b7294	-0.075902134
254	0xbd80f5d7	-0.0629689
255	0xbe1b349d	-0.15156789

model.6.bias f4 [100]
0	0x3eabfb7b	0.33590302
1	0x3e79afa3	0.24383406
2	0xbdfeccdf	-0.1244142
3	0xbd7674d6	-0.060170017
4	0xbd616a13	-0.0550328
5	0x3e01f942	0.1269274
6	0xbe16fc44	-0.14744669
7	0x3e660813	0.22464018
8	0x3e61128a	0.21979728
9	0x3da35778	0.07975668
10	0x3d932bfe	0.07186125
11	0xbd243040	-0.040085077
12	0xbec7ea2b	-0.39045843
13	0x3e5aa310	0.21351266
14	0xbe129e30	-0.14318156
15	0xbd372e31	-0.044721786
16	0xbd52e404	-0.051486984
17	0xbdaa5f87	-0.08319002
18	0xbda4d661	-0.08048702
19	0xbdf7b7cb	-0.120956026
20	0xbe25807e	-0.16162297
21	0x3e907c70	0.28219938
22	0xbdc8284e	-0.097733125
23	0x3cc4c0d0	0.024017721
24	0xbe21ea8e	-0.15812132
25	0x3e01da59	0.1268095
26	0xbdf700be	-0.120606884
27	0xbe988049	-0.29785374
28	0xbe0de2b0	-0.13856006
29	0xbe3e10ee	-0.18561146
30	0x3d3e8ceb	0.04652111
31	0xbdf99dbe	-0.1218829
32	0xbe3a6bc3	-0.1820517
33	0xbe531ec2	-0.20617202
34	0xbe68d7e6	-0.22738609
35	0xbe00f07b	-0.12591736
36	0xbe0d8606	-0.13820657
37	0xbd8975f6	-0.067119524
38	0xbdf52f3d	-0.119719006
39	0x3e324a3e	0.17411134
40	0x3dbd7357	0.09250515
41	0x3dda2432	0.10651435
42	0x3d41418d	0.047181655
43	0xbd9a8dd8	-0.07546586
44	0x3e39c2e6	0.18140754
45	0xbd5a9c49	-0.0533717
46	0x3d8e4763	0.0694721
47	0x3d2cc59e	0.04218065
48	0xbb18a450	-0.0023291297
49	0xbe45311a	-0.19257012
50	0x3e029757	0.12753044
51	0x3e04b4b3	0.12959556
52	0xbe851849	-0.2599509
53	0xbdbce322	-0.0922301
54	0x3daa19a1	0.083056696
55	0xbe8f27fe	-0.279602
56	0x3e4c6ee0	0.1996417
57	0x3ca4744a	0.020074982
58	0xbe09d9d8	-0.13462007
59	0xbd0c792c	-0.034295246
60	0xbe2afb17	-0.16697346
61	0xbd9dbbcb	-0.07701834
62	0xbdd94e14	-0.10610595
63	0x3def7938	0.116930425
64	0xbe31afaf	-0.17352174
65	0xbd8e1a52	-0.06938614
66	0xbd98e168	-0.07464868
67	0xbe992f65	-0.29918972
68	0xbd62c4d5	-0.055363495
69	0xbdd32085	-0.10308937
70	0xbe98e416	-0.29861516
71	0xbc35532c	-0.011067193
72	0xbe181701	-0.14852525
73	0x3e4b796a	0.19870535
74	0xbb124b09	-0.0022322556
75	0x3eb79852	0.358584
76	0xbe1f1363	-0.15534739
77	0x3ec30625	0.38090625
78	0xbd4e394c	-0.05034761
79	0xbde337c8	-0.11094624
80	0x3dc23662	0.09483029
81	0xbdc0d0f1	-0.094148524
82	0xbcaf9484	-0.021433122
83	0x3bba92a6	0.0056937514
84	0xbdcaed11	-0.09908498
85	0x3e214ce7	0.15751992
86	0xbdaea22c	-0.085270256
87	0x3e01c704	0.12673575
88	0x3d80d4da	0.06290598
89	0x3df76412	0.12079634
90	0x3db6cd9b	0.08925935
91	0x3e860b3c	0.26180446
92	0x3de528c9	0.1118942
93	0xbd8c54d6	-0.06852119
94	0xbe3ff352	-0.18745163
95	0x3e4056dd	0.18783136
96	0xbcc7da70	-0.024396151
97	0x3e802732	0.25029904
98	0xbe4cd2c7	-0.2000228
99	0x3e4da34a	0.20081821

model.8.weight f4 [100, 100]
0	0x3de9a7eb	0.11408981
1	0x3e16f147	0.14740478
2	0xbb658f97	-0.0035028213
3	0x3d8908d7	0.06691139
4	0xbc2938c4	-0.010328475
5	0xbe1f6438	-0.15565574
6	0xbdd3af43	-0.10336163
7	0xbd88e657	-0.06684559
8	0xbd21b1b8	-0.039476126
9	0xbdf8f54b	-0.12156161
10	0x3d2d51d5	0.04231437
11	0xbd87ed7b	-0.06637093
12	0x3cdf86b5	0.027285913
13	0xbe654c37	-0.22392355
14	0x3d790f49	0.060805593
15	0x3d9573db	0.07297488
16	0xbd01d4f6	-0.031697236
17	0x3e35d3fd	0.17756648
18	0x3c48db1a	0.012259269
19	0x3df13aa2	0.117787614
20	0xbccf04d3	-0.025270855
21	0x3e32844e	0.17433283
22	0x3d22d491	0.0397535
23	0x3c5163fe	0.012780188
24	0x3d8c474f	0.068495385
25	0x3e141039	0.14459313
26	0x3e00c4d7	0.12575088
27	0xbd85ad3e	-0.06527184
28	0xbd53646c	-0.05160944
29	0xbc9ce434	-0.019151784
30	0xbcbff763	-0.023433393
31	0x3d8984b8	0.06714767
32	0xbe04d961	-0.12973548
33	0xbd16422d	-0.036684204
34	0xbd8f2661	-0.06989742
35	0xbdce883f	-0.10084581
36	0x3d38f61d	0.045156587
37	0xbd2b25c2	-0.041784056
38	0xbdcc8eb3	-0.09988155
39	0x3dfe7667	0.12424927
40	0x3e31ffb9	0.17382707
41	0x3cd9a7be	0.026569244
42	0xbe06f1fb	-0.13178246
43	0xbc92172e	-0.017833319
44	0xbd93219c	-0.07184145
45	0x3da3e8ce	0.08003388
46	0xbe16683d	-0.14688201
47	0x3d8f9eca	0.070127085
48	0xbcde7621	-0.027155938
49	0xbd5df5d6	-0.054189526
50	0xbde28434	-0.11060372
51	0x3e4ac68c	0.19802302
52	0x3d43425b	0.047670703
53	0x3e28c8ca	0.16482845
54	0x3c5602a5	0.013062154
55	0xbe1ddf3c	-0.15417188
56	0x3d45dcdb	0.048306327
57	0xbd8b6af6	-0.068075106
58	0x3d4dc557	0.050237026
59	0x3dce0035	0.10058633
60	0x3d9f8f5c	0.077910155
61	0xbe663a52	-0.22483185
62	0xbcaebb0a	-0.021329422
63	0x3e2d609e	0.16931388
64	0x3d2a6551	0.04160053
65	0xbe56604a	-0.20935169
66	0xbead3cee	-0.33835548
67	0xbc062c43	-0.008189264
68	0xbd9595aa	-0.07303937
69	0x3e131720	0.1436429
70	0x3e2a474f	0.16628765
71	0xbe8817a6	-0.26580542
72	0xbdb6ad0f	-0.08919727
73	0x3e128499	0.14308394
74	0xbdcc8ebe	-0.099881634
75	0x3e2392cc	0.15973967
76	0xbcffe1a6	-0.031235527
77	0x3e0dc267	0.1384369
78	0xbc976121	-0.018478932
79	0xbd19695f	-0.037454005
80	0xbec8de5b	-0.39232144
81	0xbd24b23b	-0.040209036
82	0xbd07836b	-0.033084314
83	0x3d564496	0.052311502
84	0x3cfddb0a	0.030988235
85	0xbe088494	-0.13331825
86	0xbcbdd992	-0.023175035
87	0xbe3ccf78	-0.18438518
88	0x3dfc6f96	0.12325971
89	0x3e281959	0.1641592
90	0xbcd29c8f	-0.025709419
91	0x3e03ebb1	0.12882878
92	0x3cda3d0b	0.026640436
93	0x3d17b995	0.03704222
94	0xbc4ab802	-0.012372972
95	0x3dffc194	0.12488094
96	0xbdb0004c	-0.085938066
97	0xbdbf86e9	-0.09351904
98	0xbe0c219a	-0.13684693
99	0x3e635523	0.22200446
100	0xbe3fc831	-0.1872871
101	0xbd9e770a	-0.07737549
102	0x3c60bd4d	0.013717008
103	0xbdb0a158	-0.08624524
104	0x3d2a347a	0.04155395
105	0xbe004530	-0.12526393
106	0x3d34312b	0.043992203
107	0x3dd6c259	0.104862876
108	0xbc030e67	-0.007999039
109	0xbd43f03b	-0.047836524
110	0xbd6c5bb7	-0.057704654
111	0xbe061eca	-0.13097683
112	0xbd1b6673	-0.0379395
113	0xbdc0bffc	-0.09411618
114	0xbbffedcd	-0.0078103305
115	0xbdcb5802	-0.099288955
116	0x3b72e733	0.0037064075
117	0x3dab753f	0.08371972
118	0xbd1ba80a	-0.03800205
119	0xbdd909b6	-0.10597555
120	0x3d72a0c5	0.059235353
121	0xbe1965fd	-0.14980312
122	0xbe0794ee	-0.13240406
123	0x3c227a40	0.009916842
124	0xbcbf11f3	-0.023323989
125	0xbdd36047	-0.10321098
126	0xbdb97aff	-0.09056663
127	0x3d1c4bfd	0.038158406
128	0x3d9f9e78	0.077938974
129	0xbdcb26e8	-0.0991953
130	0xbb06b6fa	-0.002055584
131	0xbd97917f	-0.07400798
132	0x3dc5001b	0.09619161
133	0x3dcaef45	0.09908918
134	0x3cbb48d8	0.022861883
135	0xbd9d9920	-0.07695222
136	0xbd28da80	-0.041224003
137	0x3bb9e01a	0.005672467
138	0xbcfd9215	-0.030953446
139	0xbcdc60f3	-0.026901698
140	0x3dc0a3e2	0.09406258
141	0x3d89654d	0.06708775
142	0xbdb83da8	-0.08996135
143	0xbdc84ad2	-0.09779896
144	0xbe05249f	-0.13002251
145	0x3ca55d20	0.020186007
146	0xbdb78d42	-0.0896249
147	0x3cc80460	0.024416149
148	0xbccd326d	-0.025048459
149	0x3d40030c	0.046877906
150	0xbd3cac27	-0.046062615
151	0x3c30a10d	0.010780585
152	0xbd77c3a0	-0.060489297
153	0x3d85dbd3	0.06536069
154	0xbda533e2	-0.080665365
155	0x3d2e00f3	0.042481374
156	0x3d83d540	0.064371586
157	0xbce5e10b	-0.02806141
158	0xbbbcbfd6	-0.0057601733
159	0x3ca72613	0.020403897
160	0x3bf71ff8	0.007541653
161	0x3a5bf86f	0.00083912065
162	0x3cd225ba	0.025652755
163	0xbd36922a	-0.044572987
164	0x3db58440	0.08863115
165	0xbc04b258	-0.008099161
166	0x3d6ac87a	0.057320096
167	0xbddb3ec2	-0.107053295
168	0xbcd4d1d3	-0.025978958
169	0x3d16c2da	0.03680692
170	0x3d878afb	0.06618305
171	0xbc93eca2	-0.018057171
172	0x3cb657d3	0.022258675
173	0xbdc0f83f	-0.09422349
174	0x3d90cb37	0.0707001
175	0xbdb12fe2	-0.08651711
176	0x3cfa8511	0.03058103
177	0x3d2402cc	0.04004173
178	0x3cc73d4d	0.024321223
179	0xbd43d317	-0.047808733
180	0x3dc16012	0.09442152
181	0x3a846a67	0.0010102511
182	0xbdb75a8b	-0.089528166
183	0xbdef23e3	-0.11676767
184	0xbd6f376b	-0.05840246
185	0xbd8baa36	-0.068195745
186	0xbdf07968	-0.117419064
187	0xbda8590a	-0.08220108
188	0xbdd83958	-0.105578125
189	0x3d40a3d7	0.04703125
190	0xbdd61cf9	-0.10454745
191	0xbddfc7f3	-0.10926809
192	0xbe20277f	-0.15640067
193	0x3ce9279a	0.028461266
194	0x3c071ec0	0.008247077
195	0xbd1dfd96	-0.038571917
196	0xbb60ef9a	-0.00343225
197	0xbd90e748	-0.070753634
198	0xbdeed1e9	-0.11661131
199	0xbde685fd	-0.11256025
200	0xbc067e0a	-0.008208761
201	0xbde4f6e1	-0.11179901
202	0xbbf8eda0	-0.0075966865
203	0x3d86ee98	0.06588477
204	0xbdd3188a	-0.10307415
205	0x3debb898	0.11509818
206	0xbe041ec9	-0.12902369
207	0x3e27ac00	0.16374207
208	0xbe376a53	-0.17911653
209	0x3d04dc08	0.0324364
210	0xbc63f5b0	-0.013913557
211	0xbd4e0844	-0.05030085
212	0x3e93dea3	0.28880796
213	0xbd88ff63	-0.06689336
214	0xbd18a322	-0.03726495
215	0x3d9d3885	0.07676796
216	0xb9f0ebe3	-0.00045952116
217	0xbc70681a	-0.014673257
218	0xbd2f98d0	-0.042870343
219	0xbe8ecbf7	-0.27889988
220	0xbdcbd146	-0.09952025
221	0xbd2d7f7d	-0.04235791
222	0xbd26dcab	-0.04073779
223	0xbd81513a	-0.06314321
224	0x3e2fd79e	0.17172095
225	0xbd8980f2	-0.067140475
226	0x3d861b2b	0.06548151
227	0xbd23f1b8	-0.040025443
228	0xbd6fac60	-0.058514
229	0x3c19e0bc	0.00939196
230	0xbe428c44	-0.1899882
231	0x3dc97966	0.09837608
232	0x3d8b2d71	0.06795777
233	0x3d91edc1	0.07125426
234	0x3d06c731	0.032904807
235	0x3cdfc3e3	0.027315086
236	0x3d9c00ca	0.07617338
237	0x3d89d350	0.06729758
238	0x3b63f541	0.0034783634
239	0xbe03ac24	-0.12858635
240	0xbdf297f6	-0.118453905
241	0x3bd5a778	0.006520208
242	0xbb913f0b	-0.004432564
243	0xbcac1809	-0.021007555
244	0x3c7fd7dc	0.01561543
245	0xbda9ba74	-0.08287516
246	0x3cb6d628	0.022318915
247	0x3b953382	0.0045532594
248	0xbd3d084e	-0.046150498
249	0x3c572345	0.0131309675
250	0x3cb6ae08	0.022299781
251	0xbd13d384	-0.03609039
252	0x3d58d208	0.052934676
253	0xbd50d9b4	-0.050988868
254	0x3d1b90e7	0.037979987
255	0x3db2e7b7	0.08735602

model.8.bias f4 [100]
0	0x3e8acbdc	0.27108657
1	0xbe23bf95	-0.15991051
2	0x3e72540e	0.23664877
3	0x3d1ecb6a	0.03876821
4	0xbe8f35b9	-0.27970675
5	0x3f15f9b3	0.58584136
6	0xbd10e6cf	-0.035376366
7	0x3f1219b5	0.57070476
8	0x3d7f4cce	0.062329106
9	0x3cf725a5	0.030169317
10	0x3debf46b	0.115212284
11	0x3e9f5d2c	0.31125772
12	0xbdde4b3c	-0.108541936
13	0x3e05d341	0.13068868
14	0xbdc5f97d	-0.09666727
15	0x3ed8011c	0.42188346
16	0xbde52c54	-0.111900955
17	0xbdc78b7b	-0.09743401
18	0x3c9b019b	0.018921664
19	0xbe4633b6	-0.19355664
20	0x3e0ee14c	0.13953131
21	0x3aee5c35	0.0018185439
22	0xbe1f1749	-0.15536226
23	0xbd3130d0	-0.04325944
24	0x3b50c006	0.0031852736
25	0x3ee286ff	0.4424362
26	0x3d5eaef2	0.05436606
27	0xbd6dd0b1	-0.05806035
28	0x3c818175	0.0158088
29	0x3bb0908b	0.0053883246
30	0x3e4473ea	0.19184843
31	0xbdad5b0d	-0.08464632
32	0xbe257c48	-0.16160691
33	0x3ecd836c	0.4013933
34	0x3f01a970	0.50649166
35	0x3bfb0a0b	0.0076611093
36	0x3e80735f	0.2508802
37	0xbb8f4ac4	-0.0043729264
38	0x3ea2f849	0.31830052
39	0xbc275c31	-0.010214851
40	0x3e5237e2	0.2052913
41	0xbe57f2ac	-0.21088666
42	0x3eaf1920	0.34198856
43	0x3cd4ce31	0.025977226
44	0xbe44708f	-0.19183563
45	0x3e6e1a55	0.23252232
46	0x3ef76c47	0.48324797
47	0x3dfc116b	0.1230801
48	0xbd3e81c1	-0.04651046
49	0x3ea848b7	0.32867977
50	0xbc7a35a9	-0.015271583
51	0x3c20deff	0.009818791
52	0xbcea8a52	-0.02863041
53	0xbd9d860a	-0.076915815
54	0xbd0dc222	-0.034608968
55	0xbe9cd477	-0.30630848
56	0x3ec39047	0.38196012
57	0x3f115846	0.5677532
58	0xbd737426	-0.05943694
59	0xbaaad506	-0.0013033457
60	0xbcf4369c	-0.029811196
61	0x3e6f13e3	0.2334743
62	0x3afcc1e3	0.0019283857
63	0x3da50558	0.0805766
64	0x3e8f2990	0.27961397
65	0xbd3faba7	-0.04679456
66	0x3e76290c	0.24039096
67	0x3eb158be	0.34638017
68	0xbe09067d	-0.13381381
69	0x3db37358	0.087622344
70	0xbe884452	-0.26614624
71	0xbe38dd8e	-0.18053266
72	0x3f21d845	0.63220626
73	0xbce4728c	-0.027886651
74	0x3eaf1fd1	0.34203961
75	0xbe118e98	-0.14214551
76	0xbe00e751	-0.1258824
77	0x3e1c39c3	0.1525641
78	0xbe02635f	-0.1273322
79	0xbc9bf67e	-0.019038435
80	0xbe14828b	-0.14502923
81	0xbe7426fa	-0.23842993
82	0xbd8bf720	-0.06834245
83	0x3d9f864a	0.077892855
84	0xbd8de88f	-0.06929123
85	0xbd59f30a	-0.053210296
86	0x3ebdf1c1	0.37098506
87	0xbe14ba01	-0.1452408
88	0xbe376450	-0.1790936
89	0x3d35bc56	0.044369064
90	0xbe92a7aa	-0.28643543
91	0xba2a0777	-0.00064860977
92	0xbe88f263	-0.26747426
93	0xbe2ee25c	-0.17078537
94	0x3e5ccda4	0.2156282
95	0xbdc927c9	-0.098220415
96	0xbbcfd070	-0.0063419864
97	0x3eb428aa	0.35187274
98	0x3deab533	0.11460342
99	0x3e4548b9	0.19266023
